src/loss/weights/gray_pnet_lin_vgg_trial0.pth (torch_old, 7297 bytes, 5 tensors)

lin0.model.1.weight f4 [1, 64, 1, 1]
00000000: 0000 0000 0000 0000 0000 0000 0000 0000
00000010: 0000 0000 0000 0000 0000 0000 0000 0000
00000020: 0000 0000 d5ad 8f3f 0000 0000 0000 0000
00000030: 0000 0000 0000 0000 0000 0000 0000 0000
00000040: 0000 0000 0000 0000 0000 0000 9085 2f3e
00000050: 78c3 383f 0000 0000 0000 0000 b1ab 5e3f
00000060: 0000 0000 0000 0000 e577 203f 0000 0000
00000070: 0000 0000 0000 0000 0000 0000 09d8 603f
00000080: 0000 0000 0000 0000 0000 0000 0000 0000
00000090: 0000 0000 85fb 2d3f cc05 9137 0000 0000
000000a0: 9ef6 133f 0000 0000 0000 0000 0000 0000
000000b0: 0000 0000 0000 0000 0000 0000 0000 0000
000000c0: 0000 0000 0000 0000 0000 0000 0000 0000
000000d0: 0000 0000 3f90 6b36 0000 0000 0000 0000
000000e0: cae7 0036 0000 0000 0000 0000 0000 0000
000000f0: 0000 0000 0000 0000 0000 0000 0000 0000
0.0 0.0 0.0 0.0 0.0 0.0 0.0 0.0
0.0 1.1224924 0.0 0.0 0.0 0.0 0.0 0.0
0.0 0.0 0.0 0.17140794 0.7217326 0.0 0.0 0.8698073
0.0 0.0 0.62682945 0.0 0.0 0.0 0.0 0.87829643
0.0 0.0 0.0 0.0 0.0 0.67961913 1.7288046e-05 0.0
0.5779818 0.0 0.0 0.0 0.0 0.0 0.0 0.0
0.0 0.0 0.0 0.0 0.0 3.510169e-06 0.0 0.0
1.9208405e-06 0.0 0.0 0.0 0.0 0.0 0.0 0.0

lin1.model.1.weight f4 [1, 128, 1, 1]
00000000: 0000 0000 fd28 693e 0000 0000 0000 0000
00000010: 0000 0000 0000 0000 264d 923d 0000 0000
00000020: 2b47 bd37 0000 0000 0000 0000 0000 0000
00000030: 0000 0000 0000 0000 0000 0000 2524 1839
00000040: 0000 0000 0000 0000 0000 0000 add3 9439
00000050: 0000 0000 0000 0000 0000 0000 0000 0000
00000060: cdc9 ff38 0000 0000 7884 af38 0000 0000
00000070: 0000 0000 0000 0000 0000 0000 0000 0000
00000080: 0000 0000 0000 0000 0000 0000 0000 0000
00000090: c8ee 0c39 0000 0000 0000 0000 0000 0000
000000a0: 0000 0000 0000 0000 08a7 df38 88db 1f37
000000b0: 0000 0000 0000 0000 0000 0000 f2ca df37
000000c0: 0000 0000 ee46 5a3e 0000 0000 0000 0000
000000d0: 0000 0000 c015 0e38 0000 0000 0000 0000
000000e0: 0000 0000 0000 0000 0000 0000 0000 0000
000000f0: 0000 0000 0000 0000 0000 0000 3ebf 2739
00000100: 8177 253e 0000 0000 0000 0000 0000 0000
00000110: 0000 0000 0000 0000 0000 0000 0000 0000
00000120: c1e9 3536 0000 0000 0000 0000 0000 0000
00000130: d869 9538 b452 093f 0000 0000 0000 0000
00000140: 0000 0000 0000 0000 374f b935 0000 0000
00000150: 0000 0000 0000 0000 0000 0000 b8ca 0938
00000160: 0000 0000 480c 5138 0000 0000 0000 0000
00000170: 0000 0000 0000 0000 0000 0000 9559 0a35
00000180: 0000 0000 0000 0000 0000 0000 cf7e 1a38
00000190: 0000 0000 8eb4 0c39 0000 0000 0000 0000
000001a0: 0bba 6539 0000 0000 0000 0000 0000 0000
000001b0: 0000 0000 783b 9838 ca89 1036 0000 0000
000001c0: 0000 0000 1537 4232 0000 0000 0000 0000
000001d0: 0000 0000 0000 0000 0000 0000 0000 0000
000001e0: 0000 0000 34c7 b536 0000 0000 0000 0000
000001f0: aaf5 0b39 0000 0000 0000 0000 0000 0000
0.0 0.22769542 0.0 0.0 0.0 0.0 0.07143621 0.0
2.2563696e-05 0.0 0.0 0.0 0.0 0.0 0.0 0.00014509314
0.0 0.0 0.0 0.0002838647 0.0 0.0 0.0 0.0
0.00012196936 0.0 8.3693245e-05 0.0 0.0 0.0 0.0 0.0
0.0 0.0 0.0 0.0 0.00013440393 0.0 0.0 0.0
0.0 0.0 0.000106645806 9.528252e-06 0.0 0.0 0.0 2.6678175e-05
0.0 0.2131612 0.0 0.0 0.0 3.3875694e-05 0.0 0.0
0.0 0.0 0.0 0.0 0.0 0.0 0.0 0.00015997604
0.16158868 0.0 0.0 0.0 0.0 0.0 0.0 0.0
2.7107164e-06 0.0 0.0 0.0 7.1245886e-05 0.5364182 0.0 0.0
0.0 0.0 1.3806629e-06 0.0 0.0 0.0 0.0 3.2852142e-05
0.0 4.984092e-05 0.0 0.0 0.0 0.0 0.0 5.1539365e-07
0.0 0.0 0.0 3.683456e-05 0.0 0.00013418702 0.0 0.0
0.00021908448 0.0 0.0 0.0 0.0 7.259002e-05 2.1537876e-06 0.0
0.0 1.130481e-08 0.0 0.0 0.0 0.0 0.0 0.0
0.0 5.4174106e-06 0.0 0.0 0.0001334759 0.0 0.0 0.0

lin2.model.1.weight f4 [1, 256, 1, 1]
00000000: 77d5 9837 f649 6235 5ba1 7b39 acb1 a039
00000010: 8538 f536 3429 bf38 0000 0000 af60 c337
00000020: 0000 0000 0000 0000 0000 0000 0000 0000
00000030: 0000 0000 a669 a038 0000 0000 0000 0000
00000040: 0000 0000 0000 0000 0000 0000 1d0c 4b39
00000050: 8e7d 4739 1ef5 9f39 0000 0000 0000 0000
00000060: 0000 0000 dda0 5237 0000 0000 0000 0000
00000070: 0000 0000 0000 0000 0000 0000 0000 0000
00000080: f6c7 2a36 46aa 6e38 ff77 0938 77cb 7436
00000090: cb55 d236 b631 3439 0000 0000 0000 0000
000000a0: b0ed ab39 5c1f e837 0000 0000 2369 9837
000000b0: 0000 0000 1793 863c 90e0 7836 0000 0000
000000c0: f844 fa37 7808 5637 aa0c b537 9286 2539
000000d0: 0000 0000 0000 0000 0000 0000 4d18 9938
000000e0: 0000 0000 8129 ce36 9b4b ba37 0000 0000
000000f0: 0ffa df38 0000 0000 0000 0000 0000 0000
00000100: c53e 1c39 0000 0000 0000 0000 f9df 2838
00000110: 0000 0000 0000 0000 4e50 7d38 e1a8 b938
00000120: 0000 0000 0000 0000 0000 0000 6bbb 2c38
00000130: 0000 0000 6aa9 2338 0000 0000 0000 0000
00000140: 0000 0000 0000 0000 0000 0000 0000 0000
00000150: 0000 0000 95f2 4e38 0000 0000 bddc 6e38
00000160: 3f48 9037 2ac7 3539 0000 0000 55cf 0639
00000170: 0000 0000 0000 0000 0000 0000 8a1c ef36
00000180: 0000 0000 399e 4b39 0000 0000 4611 8637
00000190: 0000 0000 0000 0000 fe6f 0039 0000 0000
000001a0: b204 b735 0000 0000 3411 af38 9282 5d38
000001b0: 0000 0000 b52a 3739 0000 0000 7149 2139
000001c0: 89a8 793e 7805 2139 ae87 a83d 0000 0000
000001d0: 5148 0d38 0000 0000 0000 0000 eb87 6237
000001e0: 409a 783e 615c 7337 c4b1 0d38 0000 0000
000001f0: 0000 0000 d14d a936 0000 0000 1a16 7c37
00000200: 0000 0000 d8c3 d23d ea9d 8a37 0000 0000
00000210: 2f99 b537 0000 0000 0000 0000 48ef b238
00000220: fc33 ca38 dc78 a538 0000 0000 0000 0000
00000230: 0000 0000 a02d 3535 0000 0000 f3ab 1239
00000240: 0000 0000 0000 0000 ba96 b537 efde d238
00000250: 8cfa 9d37 4224 eb38 d2d6 5838 0000 0000
00000260: 0000 0000 0000 0000 0000 0000 e674 7c36
00000270: 0000 0000 0000 0000 0000 0000 13d5 2538
00000280: 0000 0000 0000 0000 0000 0000 7435 7839
00000290: 650a 2639 0000 0000 0000 0000 177f ca38
000002a0: 0000 0000 0000 0000 0000 0000 5a0f 4738
000002b0: 547d 1037 d648 323e 0000 0000 0000 0000
000002c0: 940e dc37 29a2 0e38 0000 0000 1b1c 8c36
000002d0: 819a 9038 254b ea37 4dcb 4637 0e54 1c38
000002e0: 0000 0000 0000 0000 0905 a338 0000 0000
000002f0: 157a 9637 0000 0000 0000 0000 cc28 a639
00000300: 0000 0000 0000 0000 1d07 3739 cfe5 b737
00000310: 0000 0000 0000 0000 0000 0000 0000 0000
00000320: 0000 0000 a7d7 3f39 0000 0000 0000 0000
00000330: 7345 7936 55d5 7238 c9cd d136 f68e 0b38
00000340: 0000 0000 0000 0000 281e 723d c6c6 0938
00000350: a96b 6038 0000 0000 0000 0000 f447 4d39
00000360: 0000 0000 0000 0000 0000 0000 0000 0000
00000370: 0000 0000 e204 3735 0000 0000 0000 0000
00000380: 0000 0000 0000 0000 0000 0000 4841 b438
00000390: 0000 0000 0000 0000 eb94 7038 0000 0000
000003a0: 18fa 7938 0000 0000 0000 0000 0000 0000
000003b0: 0000 0000 0000 0000 ab80 2d38 53ed db38
000003c0: 0000 0000 0000 0000 0000 0000 0000 0000
000003d0: 081b b838 7018 9b35 43b4 f837 727e 8e38
000003e0: 0000 0000 0000 0000 0000 0000 0000 0000
000003f0: 0000 0000 0000 0000 0000 0000 bcff 7836
1.8219214e-05 8.429919e-07 0.00023997335 0.00030649954 7.3081487e-06 9.1152644e-05 0.0 2.3290833e-05
0.0 0.0 0.0 0.0 0.0 7.649073e-05 0.0 0.0
0.0 0.0 0.0 0.00019364101 0.00019024892 0.0003050947 0.0 0.0
0.0 1.2554429e-05 0.0 0.0 0.0 0.0 0.0 0.0
2.5448367e-06 5.69022e-05 3.27751e-05 3.6477265e-06 6.2684753e-06 0.00017184656 0.0 0.0
0.00032792753 2.7671158e-05 0.0 1.816877e-05 0.0 0.01642756 3.7085592e-06 0.0
2.9834438e-05 1.2757366e-05 2.1582779e-05 0.00015785758 0.0 0.0 0.0 7.300135e-05
0.0 6.14411e-06 2.2208134e-05 0.0 0.00010680046 0.0 0.0 0.0
0.00014900703 0.0 0.0 4.0262912e-05 0.0 0.0 6.039469e-05 8.8529436e-05
0.0 0.0 0.0 4.1182542e-05 0.0 3.9020008e-05 0.0 0.0
0.0 0.0 0.0 0.0 0.0 4.934015e-05 0.0 5.69492e-05
1.719978e-05 0.000173357 0.0 0.00012856473 0.0 0.0 0.0 7.1260774e-06
0.0 0.00019418531 0.0 1.5982088e-05 0.0 0.0 0.00012248752 0.0
1.3635929e-06 0.0 8.3478546e-05 5.281211e-05 0.0 0.0001746815 0.0 0.00015381516
0.24380697 0.00015356194 0.08229004 0.0 3.368437e-05 0.0 0.0 1.3502296e-05
0.24277592 1.4505437e-05 3.3782577e-05 0.0 0.0 5.0456515e-06 0.0 1.5025516e-05
0.0 0.102912605 1.6524416e-05 0.0 2.1648213e-05 0.0 0.0 8.532271e-05
9.6417934e-05 7.890325e-05 0.0 0.0 0.0 6.749415e-07 0.0 0.00013987701
0.0 0.0 2.1647069e-05 0.00010055105 1.8832528e-05 0.00011212427 5.169848e-05 0.0
0.0 0.0 0.0 3.761897e-06 0.0 0.0 0.0 3.9537506e-05
0.0 0.0 0.0 0.00023671036 0.00015834866 0.0 0.0 9.655783e-05
0.0 0.0 0.0 4.7459594e-05 8.612249e-06 0.17410597 0.0 0.0
2.6232832e-05 3.400646e-05 0.0 4.175597e-06 6.895234e-05 2.7929966e-05 1.1849054e-05 3.727158e-05
0.0 0.0 7.7733835e-05 0.0 1.7938242e-05 0.0 0.0 0.00031692383
0.0 0.0 0.0001745489 2.1922313e-05 0.0 0.0 0.0 0.0
0.0 0.00018295516 0.0 0.0 3.7144316e-06 5.7895977e-05 6.252642e-06 3.3273325e-05
0.0 0.0 0.05911079 3.2848468e-05 5.3506028e-05 0.0 0.0 0.00019577128
0.0 0.0 0.0 0.0 0.0 6.817992e-07 0.0 0.0
0.0 0.0 0.0 8.5952284e-05 0.0 0.0 5.735915e-05 0.0
5.9599144e-05 0.0 0.0 0.0 0.0 0.0 4.1366246e-05 0.00010486939
0.0 0.0 0.0 0.0 8.778839e-05 1.1555512e-06 2.9647845e-05 6.79464e-05
0.0 0.0 0.0 0.0 0.0 0.0 0.0 3.7103737e-06

lin3.model.1.weight f4 [1, 512, 1, 1]
00000000: c8b9 eb3d 959a 693d ad25 4a3e 6dda 9a3d
00000010: 0e00 bf3d cfd9 8d39 ab8d e439 ee3f 1a39
00000020: 0000 0000 8a2a c63c 7f12 193d 29a6 0339
00000030: da72 1d3a 61e1 a837 ce70 2739 4498 073d
00000040: 271a 183a eb6d b33c 3d99 a43e e9d1 d638
00000050: db1c 593a 5219 e43d 0000 0000 3f72 2e3e
00000060: e172 d03d d89a d33b b5c4 5d3e 69e0 e93c
00000070: 7294 8a38 786a 5b39 0000 0000 120e dc3c
00000080: 8577 ba38 b386 c439 667b 6f3e c3c3 9b3b
00000090: 6c46 8139 6a7f 813d 9fc3 4c38 70b0 9238
000000a0: 4184 a939 6e88 523e b29d 263e 7550 993d
000000b0: 6873 2738 812f d339 42a2 f63c 8afc d43c
000000c0: da7e 363d 37c3 6e3d 1e98 d63d 668a 5b3d
000000d0: 3712 1d38 50b7 ae3c f5e0 d239 86cd 2239
000000e0: 7f09 983d b6eb 233e 1f7b 7c3c d936 2b39
000000f0: 11e7 6f3c baf4 6c3e 478a 6739 bd78 bc38
00000100: 921e 873d d209 bc39 b517 dc38 d92e 3234
00000110: 921f 593e 36a4 d939 0000 0000 14b1 103a
00000120: 7d20 033d 2a92 c237 2ae7 2a39 aecd 0638
00000130: 3d52 a73e e406 903d 11ef 183e 8f76 cc3d
00000140: e805 f33c 042d 0939 46e4 d137 8c6c a539
00000150: a0bf 9337 10ea 023d 901d 073d a2e0 ae38
00000160: fa4b 0a39 0ca3 a03d 00ed 0a37 10cb 223d
00000170: 1462 eb37 fde0 0a37 13fe d939 0000 0000
00000180: bd75 b93d 53d3 363d 1b3a f538 f10b 4e3e
00000190: e1fb 853d 679b fb37 2152 1d3e 0000 0000
000001a0: 673b 333d e4a3 6139 3cc9 f83d 45be 793c
000001b0: 267a 283e 087a 1138 0654 093e 9b55 fd3c
000001c0: d044 0139 6964 3537 48f5 bf3d 0066 e938
000001d0: 9d50 9b3c f991 303d 56c5 0a3d ee97 823a
000001e0: 6358 073d b197 0e3e 63da b637 7a45 f33c
000001f0: e332 c638 4c2e b23b 4243 3839 8ac5 9039
00000200: 38a2 f338 c0ef 743d 8b0a a83d 3656 8e3a
00000210: f553 2839 23a0 a836 c820 5b3e f896 b93d
00000220: 913c 8738 1d9e fd3d 3d03 8838 c3a2 c238
00000230: 59d4 c839 ff24 f23d 014c cb39 b6d0 8a3d
00000240: 34f6 6d37 8241 6a3d 90c8 1538 1c02 0f3e
00000250: d62f 6e3c 5f07 1238 9da1 0539 1e76 b939
00000260: a84e 7a3d a8fc 1739 2e37 093e ab51 313b
00000270: 90b5 4337 0eea 0539 cdb6 e23c f303 3339
00000280: 07fa 7739 70b1 473d cfae 4f39 b130 273d
00000290: f4a5 4a3a 3646 e93d 853d 1c39 88ab 1339
000002a0: e669 f439 e68a 113e 55e8 3c39 ef6f 5338
000002b0: 0000 0000 b09f 1c39 6a61 2b3d 8fa5 f938
000002c0: 9bc0 9e3d 1d04 403e 432a d338 b4b3 373d
000002d0: 522e 103d ecdf c93d 0f71 eb3d 77fc ae3d
000002e0: d0c4 5a39 a1d7 9338 7afa 303d a2a6 2a3d
000002f0: 0b51 c338 9e00 7b3a 252c f737 c275 973d
00000300: 7692 9039 38aa 653e 0000 0000 3614 3439
00000310: 19f9 c938 1553 863e f95d 3e3e 5e6e b339
00000320: 48db 843e 4b94 3639 c497 3939 29a0 9f3c
00000330: 6d45 a83a 0ea2 f436 0f2d f539 12ae 3639
00000340: 6955 cd3c fc40 5538 1a66 473e ce16 4b3a
00000350: 3123 9d3d 4b4f 9938 c843 923a 8646 ba3e
00000360: 560d b63e 23a2 1d3e a0bc 0e39 9892 e736
00000370: a48d 2039 f785 483d 42ed a239 0000 0000
00000380: 365a 923d 3c70 d33d 6a4b 063d e0bf f83c
00000390: 0cb5 ac39 4e22 1b38 d88f 023e ba96 3739
000003a0: d486 083a 304d 1639 474e 8535 88c9 b03d
000003b0: 3fb5 8e38 8feb 253e ec53 c23c 0000 0000
000003c0: 0a4d 523e 5dbf 3137 eac9 f73d 8c68 9339
000003d0: 0000 0000 2845 5a3e 1c51 b83d b965 253c
000003e0: 637f 6b3d 943b 3938 6934 0f38 0000 0000
000003f0: 6576 1a3d 57ef 9438 57b4 3c38 8c7a 123e
0.11510044 0.057032187 0.19740935 0.07561193 0.09326182 0.00027055896 0.000435931 0.000147104
0.0 0.024190206 0.037371155 0.00012555033 0.0006006189 2.013211e-05 0.00015968384 0.033104196
0.0005802237 0.021902999 0.32148162 0.00010243414 0.0008282193 0.11137642 0.0 0.17035769
0.101781614 0.006457668 0.21657069 0.02854939 6.608003e-05 0.0002092513 0.0 0.026862178
8.8914334e-05 0.00037484392 0.23386917 0.004753561 0.00024657266 0.063231304 4.8819576e-05 6.9946866e-05
0.0003233273 0.20559856 0.16271093 0.07486049 3.9923383e-05 0.0004028045 0.030106667 0.025999326
0.04455457 0.05829164 0.10478233 0.053598784 3.744868e-05 0.021327645 0.00040221927 0.00015526087
0.07423686 0.16007885 0.015410214 0.00016328263 0.014642493 0.23140231 0.00022081389 8.987028e-05
0.06597628 0.0003586547 0.00010494833 1.6594585e-07 0.2120345 0.00041511812 0.0 0.0005519551
0.032013405 2.3194665e-05 0.00016298579 3.2139644e-05 0.3267993 0.07032564 0.14934947 0.09983551
0.029665902 0.00013082108 2.502104e-05 0.00031552126 1.7612998e-05 0.0319615 0.032987177 8.338808e-05
0.00013189009 0.07843599 8.280622e-06 0.039744437 2.8059854e-05 8.277825e-06 0.00041578765 0.0
0.0905566 0.04463513 0.00011693333 0.20121743 0.06542183 2.9993897e-05 0.15363361 0.0
0.043757822 0.00021518726 0.121477574 0.015243118 0.16452846 3.4684344e-05 0.13410959 0.030924609
0.00012328033 1.0811819e-05 0.093729556 0.00011129305 0.018959338 0.04310796 0.0338796 0.0009963491
0.033043277 0.13925053 2.1797785e-05 0.029696215 9.450854e-05 0.005437648 0.00017572663 0.00027612998
0.000116173585 0.059798956 0.08205136 0.0010859433 0.00016053005 5.0254325e-06 0.21399224 0.09061998
6.448583e-05 0.12383673 6.4855885e-05 9.2809576e-05 0.00038305184 0.11823463 0.00038775805 0.0677809
1.4183624e-05 0.05719138 3.5711157e-05 0.13965648 0.014537772 3.4815977e-05 0.00012744074 0.00035373954
0.06111017 0.00014494604 0.13399956 0.0027056735 1.1665179e-05 0.0001277106 0.027675057 0.00017072241
0.00023648898 0.048753202 0.0001980618 0.04081792 0.00077304174 0.11390345 0.00014900237 0.00014082913
0.00046618207 0.14213142 0.00018015628 5.0410566e-05 0.0 0.00014936808 0.04184095 0.00011904083
0.0775158 0.18751569 0.00010069136 0.044849113 0.035200424 0.09857163 0.114961736 0.085442476
0.00020863418 7.04967e-05 0.043207623 0.04166282 9.31342e-05 0.0009574982 2.9465251e-05 0.073955074
0.00027574942 0.22428215 0.0 0.00017173667 9.630825e-05 0.26235262 0.18590535 0.0003422377
0.25948548 0.00017412116 0.00017699512 0.01948555 0.0012838073 7.2906323e-06 0.00046763613 0.00017421719
0.02506514 5.084368e-05 0.19472542 0.00077472336 0.07672728 7.310378e-05 0.0011159116 0.3638193
0.3555705 0.15393881 0.00013612444 6.9014022e-06 0.00015311554 0.048955884 0.0003107582 0.0
0.071461126 0.103241414 0.032786764 0.03036493 0.00032941287 3.698683e-05 0.12750185 0.0001750839
0.0005208079 0.0001433387 9.932054e-07 0.08632189 6.804847e-05 0.1620314 0.023721658 0.0
0.205372 1.0594577e-05 0.12099059 0.00028115918 0.0 0.21315444 0.089998454 0.010095053
0.057494532 4.4162924e-05 3.4142668e-05 0.0 0.037710566 7.1017705e-05 4.4990647e-05 0.1430456

lin4.model.1.weight f4 [1, 512, 1, 1]
00000000: 42a7 c13b 56ad b23d 7efd 9e3c 481a 5a3d
00000010: a8a1 1f3d 8fda b63d b710 c23c 639d 2b3d
00000020: 47fd 013e 805d 093e 4067 b73d b41d 5a3d
00000030: 46f2 ac3d 3553 933c ae12 0e3e 1ec3 873d
00000040: c7e9 063c 4aeb b83d eca2 483d 5f38 663d
00000050: 3ccd 993d 5da7 c13d 9a50 513d 8881 393a
00000060: 5b89 c43c 7f83 9f3d 0000 0000 b74c d53d
00000070: 5b06 a53d 6a9a 1d3e 91da 9c3d 884c a73d
00000080: 1ce9 723a dbb5 ed3d afa7 ad3d 0413 e63d
00000090: c59d 203d 4b65 e63a 616c 9939 5549 b93c
000000a0: f581 923c 2f98 ec39 e48b 933d 60a4 0b3d
000000b0: 5c0a f83c 2ab7 8c3d 211c bc3d 2c13 323c
000000c0: ad7a b83d 6e80 8c3d 90b1 9c3a 0000 0000
000000d0: 8de4 793d 34a1 c739 75f3 553d 058c 923d
000000e0: 857b db3d 7f96 d23c 230e 173e d1c4 123e
000000f0: 70e4 6939 3783 203d ee4e a63d 7d4b 2b3d
00000100: 2b9b 2a3d 6b05 8a3c ae11 343b 25d1 dc3d
00000110: 5faf 193d 02cc 533d f218 033e 0000 0000
00000120: e5fc cf3d cf5b b33c 424a 7f3d f4a3 b93d
00000130: 029e 1039 183f 093d f75f 273d 0eec 013e
00000140: 0278 6b3c 9e64 b33d 318a b53a 6b0a 943c
00000150: 53de 903c 0553 723d a59b 383d 03c7 5e39
00000160: f85f f238 247a ba3c 1363 f43d e2ab 193e
00000170: 67c8 3138 9ea4 063d 7b55 a23c b105 503d
00000180: 8c34 823d 792c eb3d 3c6f 073e ebb4 b03d
00000190: 2147 1c3d 9fe2 613d 63c3 243c fb45 cb39
000001a0: 7db1 303e 5495 af3b 9773 a439 6d9a 9f3c
000001b0: 0000 0000 2987 d03d 1c7f f63c f50d 923c
000001c0: 6a9a 4e3c bc45 2b3d aa17 fc3c 7a15 1d3d
000001d0: 9536 3d3d 6d1b ae3b bbf7 b73d c939 b63e
000001e0: 8e54 823d 0342 193e 2939 283d b845 0f3a
000001f0: a107 783d b835 bf3a 8cd0 9c3d a8b5 9a3d
00000200: 7655 bc3d becb 1b3d a4b1 e63d 39cd 673d
00000210: a357 d838 56cc 2e3a 653e 843d cfc9 703a
00000220: 0be7 c53d 8cc6 5b3d c960 8c3c 7f4d 803d
00000230: 33f2 c23d 1090 0b3e 6621 6c3d d714 073d
00000240: ff22 b139 d6bc 3a3b c8c0 8b3d 0718 3839
00000250: 1ac1 8b3d c8c2 313d a80a 8d3d 69c1 093a
00000260: 1fa6 eb3d 3cb9 f03d 670a 063e 8e86 2339
00000270: a161 dd3c e7b5 083e 9adf 9039 46b5 073e
00000280: 9c66 b93d 7515 633d 5622 a93d a5e3 7036
00000290: 6f74 0d3d 4c3d 663d 9a2e f43d 30dd a63d
000002a0: caed d33a 7dbf ce39 844c 883a 37ed d43d
000002b0: ff0f bc3d b92f b43d 02fd 1438 b1cf 743d
000002c0: 19b9 dd3b 1c55 003d 3514 5f3d 9f0b 073e
000002d0: dc47 193e d87a 5c3d dc1d 5b3a 0000 0000
000002e0: 3cab 153d 5a21 823a 688a e53d 19fa d438
000002f0: 98ae 2e3d b030 d83d f6f7 e63c cddb 003d
00000300: 0419 773a a452 d13d abe5 db3d dd97 2e3c
00000310: 42b6 273d 3522 6a3c 7881 ca3b dacb b639
00000320: 57cb 7339 9067 b43d bbb9 3d3c f1ba 1c3e
00000330: 71b7 d33d 3668 f03c 7d23 593c ae40 d83d
00000340: a90c 043e e8f5 0c3e 7aa3 003e db20 283d
00000350: d1ea 303d e8db 883d e331 e43c c0cf 713c
00000360: 2a69 7a3c ff2f 5c3a 1c1f 503d 13c7 cc3b
00000370: c0d0 be3d 4bfe 023e cf67 ae38 9fd5 483d
00000380: 92cc 313c 8032 2c3a 9968 bf3d 9412 c339
00000390: 969b 5a37 c5b0 223d dc7a b43c 33d0 193a
000003a0: f7c0 963c f571 be3d 37a3 5a3d 8186 033e
000003b0: baee d63d 4d51 f13c 804d 113d eca0 ae3d
000003c0: 6e5b 603d cf9e 8c39 e0d3 073d 2a78 513d
000003d0: a838 b93d acd4 b039 3176 063e c06c a13a
000003e0: f2a5 773d 4fb1 523d d3d2 903d cd36 bc3d
000003f0: 402f 7f3d df97 c73c ea96 f03d eb3f 213a
0.0059098313 0.087244675 0.019407984 0.05324772 0.038972527 0.089284055 0.02368961 0.041898143
0.12694274 0.13414574 0.0895524 0.053250983 0.084446475 0.017984012 0.13874313 0.066290125
0.008234448 0.09029253 0.0489835 0.056206103 0.075098485 0.0945575 0.05110226 0.00070764916
0.023991277 0.07788753 0.0 0.10415023 0.08057853 0.15390936 0.07658876 0.08168894
0.00092663034 0.11606952 0.08479249 0.11234096 0.03921296 0.0017577795 0.00029263183 0.022617975
0.017884234 0.00045126813 0.072044164 0.034092307 0.030278377 0.06870873 0.09185053 0.010868829
0.090077735 0.068604335 0.0011954773 0.0 0.06100898 0.00038076343 0.05223413 0.07155613
0.10716919 0.025706528 0.14751486 0.14332892 0.00022305711 0.039187636 0.081205234 0.041820038
0.041651886 0.016848287 0.0027476358 0.10782079 0.037520763 0.05170823 0.12802485 0.0
0.10155658 0.021894364 0.062326677 0.09064475 0.00013791773 0.033507437 0.040863004 0.12687704
0.014371874 0.087594256 0.0013850388 0.018071374 0.017684137 0.059161205 0.04507031 0.00021245707
0.00011557335 0.02276332 0.119329594 0.15006974 4.2386728e-05 0.032871835 0.01981615 0.050786678
0.06357679 0.11483092 0.13226026 0.08628257 0.03815377 0.055147763 0.010056349 0.00038771317
0.17255206 0.0053583775 0.0003136664 0.019482816 0.0 0.1018203 0.030089907 0.01782892
0.012610057 0.04181455 0.030773003 0.03835056 0.04619463 0.005313328 0.08982798 0.35590962
0.06363784 0.14966588 0.041070137 0.0005465406 0.06055415 0.0014588153 0.07656965 0.075541794
0.09195988 0.0380361 0.11264351 0.0565922 0.00010316006 0.00066680217 0.06457213 0.0009185345
0.096632086 0.053656146 0.017135995 0.06264781 0.09518852 0.13629174 0.05764904 0.03297886
0.00033786145 0.0028493903 0.068238795 0.00017556558 0.068239406 0.04339865 0.06886798 0.00052549556
0.115062945 0.11754081 0.13089906 0.00015595017 0.027024092 0.1335064 0.00027632416 0.13252744
0.09052774 0.055440385 0.08258502 3.5895293e-06 0.034534868 0.0562108 0.11922951 0.08147657
0.0016168889 0.00039434052 0.001039878 0.10396808 0.091827385 0.08798165 3.552158e-05 0.059768382
0.00676645 0.031331167 0.05446263 0.13188027 0.14968818 0.05382809 0.00083586364 0.0
0.036540255 0.0009928152 0.112080395 0.00010155532 0.042646974 0.105561614 0.028194409 0.03145962
0.000942603 0.102208406 0.10737165 0.010656324 0.0409453 0.014290382 0.0061799847 0.00034865626
0.00023250036 0.088088155 0.011579926 0.15305687 0.10337723 0.029346567 0.01325309 0.10559212
0.12895454 0.13765681 0.12562361 0.04104696 0.04319269 0.06682569 0.02785582 0.014759004
0.015283862 0.0008399486 0.05081092 0.0062493174 0.0931716 0.12792318 8.3163024e-05 0.04903185
0.010851996 0.00065688044 0.09346122 0.0003720714 1.3030038e-05 0.03971936 0.02203124 0.0005867511
0.01840256 0.09299079 0.05337831 0.12844278 0.10494752 0.029457713 0.0354743 0.08526787
0.054774694 0.00026821202 0.033161044 0.051139988 0.090440094 0.0003372779 0.13131024 0.0012315735
0.060460992 0.051438626 0.070714615 0.0919014 0.06230092 0.02436441 0.117475346 0.0006151187
