src/loss/weights/gray_pnet_lin_squeeze_trial0.pth (torch_old, 10811 bytes, 7 tensors)

lin0.model.1.weight f4 [1, 64, 1, 1]
00000000: 0a4f bb36 0000 0000 0000 0000 0000 0000
00000010: 0000 0000 0000 0000 0000 0000 2e2c a13e
00000020: 0000 0000 0000 0000 0000 0000 cc55 4b3d
00000030: 0000 0000 dafc d635 0000 0000 bdc2 8536
00000040: 90bd c23c 0000 0000 0000 0000 0000 0000
00000050: 0000 0000 e0d5 4438 0000 0000 0000 0000
00000060: 0000 0000 0000 0000 f9b0 2036 0000 0000
00000070: 0000 0000 ed8e 5333 9595 bd3d 0000 0000
00000080: 0000 0000 0000 0000 0000 0000 5f34 9d37
00000090: 84eb 3536 0000 0000 0000 0000 13c9 2337
000000a0: 0000 0000 0000 0000 41b8 d536 0000 0000
000000b0: b3c5 7d38 f9c0 bb3d 0000 0000 0000 0000
000000c0: 0000 0000 9838 d634 0000 0000 0000 0000
000000d0: 9a04 723f 0000 0000 0000 0000 eb62 9f36
000000e0: cea5 a936 878e c63e 0000 0000 e55d 813f
000000f0: 0000 0000 a1fb 803f a0cc 113c 9373 9c39
5.5822356e-06 0.0 0.0 0.0 0.0 0.0 0.0 0.3147902
0.0 0.0 0.0 0.04964237 0.0 1.6017832e-06 0.0 3.9863794e-06
0.023772031 0.0 0.0 0.0 0.0 4.6929228e-05 0.0 0.0
0.0 0.0 2.394487e-06 0.0 0.0 4.9257256e-08 0.09257046 0.0
0.0 0.0 0.0 1.8740246e-05 2.710819e-06 0.0 0.0 9.762373e-06
0.0 0.0 6.3693446e-06 0.0 6.0504022e-05 0.09167666 0.0 0.0
0.0 3.9901784e-07 0.0 0.0 0.9453827 0.0 0.0 4.750085e-06
5.0558947e-06 0.38780615 0.0 1.0106779 0.0 1.0076791 0.008898884 0.00029840748

lin1.model.1.weight f4 [1, 128, 1, 1]
00000000: 0000 0000 0000 0000 0000 0000 0000 0000
00000010: 52ff d137 2222 5f38 0000 0000 4776 2538
00000020: 0000 0000 8d32 fd35 2857 5e3c f8ce 5337
00000030: e75a 7a38 92f5 ed37 0000 0000 708b b637
00000040: 677a 8037 c655 8337 0000 0000 c0a4 ba36
00000050: 0000 0000 6caf a73e e1a4 f93d 0000 0000
00000060: 0521 ae36 d199 8d38 0000 0000 0000 0000
00000070: 0000 0000 0000 0000 357a 0336 727b eb38
00000080: 9544 9d36 e424 4236 eef5 2836 7c75 3d36
00000090: 23ed e238 0000 0000 0000 0000 e28e 9f38
000000a0: 06a0 0638 56d6 1338 0000 0000 0000 0000
000000b0: 190c fe3c fa44 d036 0000 0000 1b0d 7036
000000c0: c111 9a36 98c5 a836 0000 0000 0000 0000
000000d0: 0000 0000 a98b 0738 0000 0000 0000 0000
000000e0: b38d 8d38 1417 8037 ae51 9b37 dc7a fc37
000000f0: 0000 0000 b902 6537 0000 0000 0000 0000
00000100: 0000 0000 0000 0000 0000 0000 0000 0000
00000110: 4486 b636 0000 0000 4a8f fc35 3c76 4637
00000120: 0000 0000 0000 0000 0000 0000 0000 0000
00000130: 0000 0000 0000 0000 0000 0000 0000 0000
00000140: 0000 0000 0000 0000 0000 0000 2b66 8437
00000150: 0000 0000 0000 0000 0000 0000 0000 0000
00000160: 0000 0000 0000 0000 0000 0000 0000 0000
00000170: 0000 0000 0000 0000 0000 0000 0000 0000
00000180: 0000 0000 0000 0000 0000 0000 9bd5 1438
00000190: 0000 0000 f021 3f35 0000 0000 0000 0000
000001a0: 0000 0000 a06e b137 0000 0000 0000 0000
000001b0: 0000 0000 0000 0000 0000 0000 0000 0000
000001c0: 0000 0000 0000 0000 0000 0000 1396 3838
000001d0: 0000 0000 0000 0000 0000 0000 0000 0000
000001e0: 0000 0000 0000 0000 75cb ae35 0000 0000
000001f0: 6979 8c37 0000 0000 0000 0000 7315 b637
0.0 0.0 0.0 0.0 2.5033634e-05 5.319913e-05 0.0 3.944922e-05
0.0 1.8864681e-06 0.013570584 1.2624769e-05 5.9689304e-05 2.8366954e-05 0.0 2.1761021e-05
1.5315787e-05 1.5656358e-05 0.0 5.5624114e-06 0.0 0.32751024 0.12189651 0.0
5.189448e-06 6.7520545e-05 0.0 0.0 0.0 0.0 1.9591655e-06 0.00011228667
4.6869486e-06 2.8929726e-06 2.51771e-06 2.823158e-06 0.0001082069 0.0 0.0 7.608325e-05
3.2097123e-05 3.5247147e-05 0.0 0.0 0.031011628 6.206913e-06 0.0 3.5770415e-06
4.5916245e-06 5.029793e-06 0.0 0.0 0.0 3.2316577e-05 0.0 0.0
6.7497975e-05 1.5269536e-05 1.8515475e-05 3.0097952e-05 0.0 1.3650098e-05 0.0 0.0
0.0 0.0 0.0 0.0 5.4396533e-06 0.0 1.8817166e-06 1.1829248e-05
0.0 0.0 0.0 0.0 0.0 0.0 0.0 0.0
0.0 0.0 0.0 1.5783202e-05 0.0 0.0 0.0 0.0
0.0 0.0 0.0 0.0 0.0 0.0 0.0 0.0
0.0 0.0 0.0 3.5484885e-05 0.0 7.120243e-07 0.0 0.0
0.0 2.1151558e-05 0.0 0.0 0.0 0.0 0.0 0.0
0.0 0.0 0.0 4.4008786e-05 0.0 0.0 0.0 0.0
0.0 0.0 1.3023224e-06 0.0 1.6745837e-05 0.0 0.0 2.1706079e-05

lin2.model.1.weight f4 [1, 256, 1, 1]
00000000: f119 093e 75d2 143e 2393 9d37 8254 e038
00000010: c2cd 7c3e 5af5 d537 86f9 7537 3c46 b036
00000020: 71b1 1736 bba9 1338 c0c0 b138 9732 1a38
00000030: ea97 8e37 1d38 cd38 3b07 2238 4310 1d38
00000040: 68f0 7237 b7a4 dd37 5fbd af39 1e87 af38
00000050: 618c 4437 989b 4b38 a76f 0039 8bfb c637
00000060: 13e6 5636 0000 0000 9748 363e 5114 4d3e
00000070: bb43 0c37 789e 9538 50ed 4c37 5457 b437
00000080: cb54 cb37 1b83 ee3d 607f df37 384d 3838
00000090: 55ef b337 2fbf 5b37 e802 b03d 1230 6038
000000a0: 9301 5637 c11a 1338 a056 9f38 284a 1238
000000b0: a621 5138 6b40 753c ecc8 1337 3573 423e
000000c0: 5a8e 0538 6f3a 9738 d89d 9e36 2bf3 6638
000000d0: a227 8436 7589 6a3e 4ec5 903e 127f c838
000000e0: 3b45 0638 80f8 8039 4448 4336 1ef7 0538
000000f0: 514b 2138 0000 0000 93ce c937 20c7 4a37
00000100: f274 0738 82ec 1636 f9bc df36 cba4 c436
00000110: 1bd2 923c 0000 0000 96f2 2939 8a57 f938
00000120: 2740 cb37 5928 6c36 a7af f838 f9a4 c23d
00000130: 73cd 3239 2a66 3137 e28f 6a39 38ff f037
00000140: dfc3 c037 c886 ba36 1bc3 983e 0000 0000
00000150: 7e24 8637 6949 4938 2b84 8a37 ce4c d93e
00000160: 0000 0000 4f22 9339 cddc 2238 e0e1 a938
00000170: 0000 0000 34d9 a738 2e33 493e 2fe7 8437
00000180: 2525 bd3c e194 2938 a999 2c38 3f57 9436
00000190: 0000 0000 fa74 5b3d 4cef 673e 9e31 683e
000001a0: 912b 0138 0035 8b36 9215 7f3d 1b18 c536
000001b0: 40f4 4637 0000 0000 5cc9 4938 0628 cd3d
000001c0: 602d e73c 1690 303e 1a38 e138 4bcb d537
000001d0: 3d18 933d 326a ee37 38af 4f38 2e8f ac3d
000001e0: 3787 bc36 0000 0000 b7f0 6838 05de f337
000001f0: e44f 4438 0d03 ad3e 0be6 c13e f8a5 3f35
00000200: dd94 9835 9a71 d43e 0000 0000 77ff 9c37
00000210: d5ab cb38 0000 0000 9787 a133 7941 a835
00000220: b546 5636 0000 0000 0000 0000 776f e837
00000230: 0e16 b737 0000 0000 bb42 e83b 5154 d538
00000240: 0000 0000 f90c 3537 570f 1b38 e146 ef37
00000250: 3038 8a37 b722 9837 0000 0000 8a6e 3738
00000260: 67cc 2938 0000 0000 d59b bc37 0000 0000
00000270: 0000 0000 0000 0000 4238 133d 463c 9336
00000280: d3ab 6437 0000 0000 7de9 7036 9ecc dd3d
00000290: 655f ab3c a3ee 303f 1f1d a136 ea74 9037
000002a0: 0000 0000 0000 0000 a6c9 0637 e1e0 2d36
000002b0: 5d66 0a38 f468 7a38 b2df 2638 8c60 0e37
000002c0: 6377 0937 0000 0000 bd9a 0039 32c2 ab38
000002d0: 3a6c 8334 0000 0000 fda6 e137 0000 0000
000002e0: 0000 0000 0000 0000 0000 0000 6bd7 ef33
000002f0: 89d8 b83d 11f1 1f35 0000 0000 cfd3 0f37
00000300: b147 a436 0000 0000 f25a 9b3d e916 f936
00000310: 0000 0000 0000 0000 d5b5 6436 bc7a 0d36
00000320: 9f4d 8039 b6fc 7136 9df4 4637 35de 4c39
00000330: 1157 f838 0000 0000 67c5 b936 0000 0000
00000340: b45f 1036 4c14 2e37 9838 c036 0000 0000
00000350: 4dab fd36 0000 0000 1e7d 8c3d fe42 9438
00000360: dbe5 1b38 58e7 1137 6097 7537 da83 a036
00000370: ead0 7e37 6837 7237 2980 1f39 ac20 0c36
00000380: 0471 a23e 7128 8135 0000 0000 9b59 2e38
00000390: 9f90 ae37 e0ca b53d 0000 0000 aecd 8738
000003a0: 7d4e 7237 ea83 5537 5a5b 9d3e 69b4 ce35
000003b0: 26a5 ca35 0000 0000 6825 6538 cc06 db36
000003c0: ece6 6438 3a3c a237 1a65 1236 0000 0000
000003d0: 0000 0000 506d 0b3c a1e8 cf36 97a6 b037
000003e0: df44 9536 0000 0000 0000 0000 ef73 9236
000003f0: 20ee ef37 da4e b837 aec6 ef37 92de 1e38
0.13388802 0.14533408 1.8784374e-05 0.00010696893 0.24687865 2.550583e-05 1.4661235e-05 5.253385e-06
2.2604038e-06 3.5205605e-05 8.47592e-05 3.6763577e-05 1.699846e-05 9.785614e-05 3.8630544e-05 3.7446862e-05
1.4480298e-05 2.6421954e-05 0.00033519694 8.369818e-05 1.1715195e-05 4.854388e-05 0.00012248625 2.3720573e-05
3.2022406e-06 0.0 0.17801128 0.20027281 8.36042e-06 7.134391e-05 1.2214601e-05 2.1498337e-05
2.423897e-05 0.116461 2.6642985e-05 4.3940934e-05 2.144991e-05 1.3097931e-05 0.08594304 5.345053e-05
1.27557605e-05 3.5072448e-05 7.597846e-05 3.4878176e-05 4.986082e-05 0.014968972 8.808664e-06 0.1898926
3.1842246e-05 7.211125e-05 4.7271424e-06 5.506274e-05 3.9385204e-06 0.22903998 0.28275532 9.560412e-05
3.2012565e-05 0.0002459921 2.9099328e-06 3.1939817e-05 3.8455535e-05 0.0 2.405726e-05 1.2086501e-05
3.2295422e-05 2.2489407e-06 6.667917e-06 5.8604396e-06 0.017922452 0.0 0.00016207466 0.00011889551
2.4229359e-05 3.5190226e-06 0.00011858279 0.09504122 0.00017051939 1.0573809e-05 0.0002236958 2.8729075e-05
2.2979393e-05 5.5589226e-06 0.29836354 0.0 1.5991038e-05 4.7990503e-05 1.6512427e-05 0.4244141
0.0 0.00028063587 3.8829447e-05 8.1006205e-05 0.0 8.003638e-05 0.1964843 1.584328e-05
0.023089001 4.0431394e-05 4.1151103e-05 4.4209005e-06 0.0 0.053578354 0.22649878 0.22675177
3.079657e-05 4.148693e-06 0.06227643 5.8738638e-06 1.1858589e-05 0.0 4.8109665e-05 0.100173995
0.028219879 0.17242464 0.00010739286 2.5486244e-05 0.071823575 2.8421262e-05 4.951583e-05 0.08425747
5.6185777e-06 0.0 5.5537294e-05 2.9071243e-05 4.6804445e-05 0.3379139 0.3787082 7.139456e-07
1.1368207e-06 0.4149292 0.0 1.871561e-05 9.7118005e-05 0.0 7.5218104e-08 1.253603e-06
3.1929642e-06 0.0 0.0 2.770846e-05 2.182557e-05 0.0 0.007088033 0.000101723366
0.0 1.0791461e-05 3.6969166e-05 2.8524026e-05 1.6477046e-05 1.8135977e-05 0.0 4.3733547e-05
4.0483104e-05 0.0 2.2483911e-05 0.0 0.0 0.0 0.035942324 4.387958e-06
1.3629865e-05 0.0 3.5898695e-06 0.10830043 0.020919511 0.6911413 4.801564e-06 1.722058e-05
0.0 0.0 8.033972e-06 2.5909906e-06 3.2997097e-05 5.970239e-05 3.9785817e-05 8.486339e-06
8.193633e-06 0.0 0.00012264676 8.190087e-05 2.4479397e-07 0.0 2.689985e-05 0.0
0.0 0.0 0.0 1.1168489e-07 0.09025676 5.9582914e-07 0.0 8.57278e-06
4.895927e-06 0.0 0.07585706 7.4234454e-06 0.0 0.0 3.4080488e-06 2.1082078e-06
0.00024471895 3.6058896e-06 1.1858673e-05 0.00019537735 0.00011841779 0.0 5.5364103e-06 0.0
2.1513379e-06 1.0375934e-05 5.7286343e-06 0.0 7.5599296e-06 0.0 0.06859802 7.069668e-05
3.716895e-05 8.696537e-06 1.4638383e-05 4.783721e-06 1.5188221e-05 1.4437224e-05 0.00015211165 2.0880643e-06
0.3172685 9.623019e-07 0.0 4.1568284e-05 2.080976e-05 0.08876586 0.0 6.4756125e-05
1.44425985e-05 1.2726503e-05 0.30733758 1.5400702e-06 1.5098237e-06 0.0 5.4632692e-05 6.5275e-06
5.45745e-05 1.933995e-05 2.1814544e-06 0.0 0.0 0.008509949 6.1961623e-06 2.105841e-05
4.4485637e-06 0.0 0.0 4.3646355e-06 2.8601906e-05 2.1971227e-05 2.8583538e-05 3.787742e-05

lin3.model.1.weight f4 [1, 384, 1, 1]
00000000: 58aa 843e 0a7e 623d 1de5 9038 18c0 4e3c
00000010: ddce 683b dd59 503f 405b 2038 d66d 693e
00000020: a006 963e b9e2 f33d b8e1 5038 7081 203a
00000030: 9a78 6438 52d3 d53e 1439 c53d cda5 b437
00000040: 0ed2 b73e ee45 4d3e d293 c23d d800 4e3e
00000050: 53d5 9e3d 2d13 f438 514a 5b3e 0dce 9637
00000060: 1c32 3f39 bfaf df3d f135 083c cabb 903e
00000070: 4c87 e53d d534 243f 6562 2b38 b0d2 0739
00000080: 0741 d83c 484a 033d 3714 453d 5c34 c03c
00000090: 4efd 0838 b774 0c3d 0267 213e 063a 323e
000000a0: 12f5 273f 3ec8 043e b5ce af3d f3ad 9a3e
000000b0: 51e4 ad3d c19e e037 54fb 063f e7e0 b53e
000000c0: ec78 d93d c214 9e3e e154 1938 f52e bc3e
000000d0: 60d5 8d37 8bb9 0038 2358 833e d6fb 3f3d
000000e0: ecae ba38 5cfb 043e 7c12 123e dc2c 933e
000000f0: 5dba df38 6bf3 e83d abbe 913c 35f9 bd3d
00000100: 687b b23d fd23 6a3d e0bc a53e a27a 813d
00000110: f475 243e 8de4 f43d d9cf 593e a6f6 e83e
00000120: 151a 393e 4de3 2137 aaa4 163e 0f7e 8d38
00000130: e815 983e 7579 8d38 db40 c93d 6599 9838
00000140: 1372 dc3d 158d bd3b 0000 0000 1b7f a139
00000150: 7f3b 9e38 4c3a 613d 004c 683e 577a d63e
00000160: 9000 903d c947 4138 cd48 183d 46d1 6539
00000170: cabe e138 396c 873d a9df d93c 2ee5 ca35
00000180: 978b b03e 8fdf 433e fe45 5c3e f66f 663e
00000190: d754 ab3e 2df7 8138 7226 b23e 17ee 0b3a
000001a0: 06bd 293f d936 003d b049 e93e 4119 1f3e
000001b0: 9b14 ef38 428d e03e 762c 213e 8b3a b03e
000001c0: b379 2f3e 046f 0c3a c287 db3d 1de4 6a37
000001d0: 7426 083f fdd3 8b3e f540 0b39 5239 2c3f
000001e0: 1ede 933c 4302 2538 23dd 9b38 c66e 703e
000001f0: a60d b03d ac59 7a3d b6dc cb3e fd9d 193e
00000200: 9053 963d ec21 123e fba2 ee3d 52a0 cc3d
00000210: bfed a238 eea4 aa3c 6c15 ae3e d114 2d3d
00000220: f2b6 a839 0000 0000 6146 9839 9cdb 8f3d
00000230: 8239 5b3d edc4 553e 706d aa38 81a7 cf3e
00000240: 75f7 e939 313c 023e e3bc e93b f48e f53c
00000250: 5a9b 3e36 a45a 4c3c 72ba 0538 4da6 943e
00000260: 5970 4039 9eab 4b3e d440 4338 f3cd 1c39
00000270: 5aa3 1e3e 7767 853d 1f5c 3d3d 679a bf38
00000280: 5526 283f 8aea 6b38 de66 9338 5169 0037
00000290: 50a2 4e3d ad3a e73c 1a8f 333d 7e3b fb3e
000002a0: d325 6a3d 11b5 1338 500e 993c 9573 6f3e
000002b0: beb1 803e 3f25 3539 5898 1d3e d5de 3638
000002c0: ec03 ec3e 88cc 5038 8d5c 2035 8932 943d
000002d0: 740f b338 85fd 0c3c 7b7f 0d38 5d70 d13e
000002e0: ef88 463e 9723 4a38 ae8a a53e f168 0038
000002f0: e550 c538 508d 073d 64bb 4239 c172 f33d
00000300: 7bd9 0139 ad00 9a3e f19f 443e d6ce 0f3e
00000310: 2763 6e3e c044 d33d f477 0339 4a47 bb37
00000320: 35d9 4337 6d2f 2139 74e6 6939 80b7 ee3d
00000330: 5c87 ac3e de06 393e c622 223e 0e63 fc37
00000340: ea1f 8839 d8df a537 0bc9 c337 9457 943d
00000350: 2e28 1538 0bc5 063c 6a82 bb37 bafd 003f
00000360: 1f5e 0439 67a1 5a39 0000 0000 bf8d 5b36
00000370: bfe7 213e 0ec7 233e 9734 a437 64f2 b13d
00000380: 0de1 423e f932 c939 cfdc e438 d1b7 333d
00000390: 3f6b 273d b918 333e 27a9 103a 72cc 2e3d
000003a0: a5bc 5239 ba35 603e a9d2 b03b 6d9f 6138
000003b0: bb45 653d e7e6 d035 23b7 1d3d 3b72 ff37
000003c0: 8113 a538 a60f 5c3d 11d7 b938 c6fd b53d
000003d0: bbd2 453e 6acf db3d 24a6 9238 f05b 613d
000003e0: 517a 2e3a ffbd b93d 6faa d137 673f 5c39
000003f0: 0e77 603e 008c 1537 d966 873c 4512 2639
0.25911212 0.05529598 6.909131e-05 0.012619041 0.003552369 0.8138712 3.8231956e-05 0.22795805
0.2930193 0.11908478 4.980128e-05 0.00061228033 5.4471755e-05 0.41762787 0.096300274 2.153488e-05
0.35902447 0.20046207 0.09500851 0.2011751 0.07755532 0.000116383984 0.21415068 1.7977343e-05
0.00018233847 0.10922193 0.008313642 0.28268272 0.112074465 0.64143115 4.0861214e-05 0.0001295309
0.026398195 0.032053262 0.04811498 0.023462467 3.2660835e-05 0.034290995 0.1576195 0.17404947
0.6560832 0.12967011 0.08584348 0.30210838 0.084908135 2.6776806e-05 0.52727246 0.3552315
0.10618767 0.30875212 3.6557092e-05 0.36754575 1.690787e-05 3.069038e-05 0.2565318 0.04687103
8.901753e-05 0.12986511 0.14264864 0.28745162 0.000106681815 0.11374553 0.017791113 0.09276048
0.08714944 0.057163227 0.32370663 0.063222185 0.1606062 0.11957655 0.21270694 0.45500678
0.18076356 9.64927e-06 0.14711252 6.746884e-05 0.29704213 6.746027e-05 0.09826823 7.276497e-05
0.107639454 0.0057846406 0.0 0.00030803014 7.545109e-05 0.054987237 0.22685242 0.41890213
0.07031357 4.608164e-05 0.037178803 0.00021917102 0.00010764373 0.06612439 0.026595907 1.5116873e-06
0.344815 0.1912825 0.21511075 0.22503647 0.33463165 6.1972394e-05 0.34794956 0.00053379074
0.6630405 0.031302307 0.45564032 0.15536977 0.00011400246 0.4385777 0.15739617 0.34419665
0.17136268 0.0005357119 0.10719253 1.4000599e-05 0.53183675 0.27310172 0.00013280271 0.67274964
0.01805025 3.9341172e-05 7.432166e-05 0.23479757 0.08596353 0.061120674 0.39816827 0.15001674
0.07340157 0.14270753 0.1165218 0.09991516 7.7690456e-05 0.020830598 0.3400072 0.04225618
0.00032179762 0.0 0.00029044136 0.07024309 0.05352164 0.20875902 8.126616e-05 0.40557483
0.00044625593 0.12718274 0.0071331128 0.029975392 2.8402633e-06 0.012472782 3.188331e-05 0.29033127
0.000183524 0.19889686 4.6552e-05 0.00014954041 0.15492001 0.06513875 0.04623043 9.1363494e-05
0.6568349 5.6246798e-05 7.028667e-05 7.653915e-06 0.050447762 0.028226221 0.043837644 0.49068826
0.05716498 3.5216162e-05 0.018683583 0.23383935 0.25135607 0.0001727538 0.15390146 4.359971e-05
0.46096742 4.978155e-05 5.9739324e-07 0.07236201 8.5382635e-05 0.008605366 3.3735745e-05 0.4090604
0.19388174 4.81937e-05 0.32332367 3.0615312e-05 9.40876e-05 0.03309375 0.0001857109 0.11887122
0.00012383416 0.3007864 0.19201638 0.14043745 0.23280011 0.103158474 0.0001253782 2.2325334e-05
1.1673478e-05 0.00015371824 0.00022306462 0.116560936 0.3369702 0.18069026 0.15833578 3.0086867e-05
0.0002596372 1.9773768e-05 2.333943e-05 0.07243267 3.556179e-05 0.00822569 2.2352866e-05 0.50387156
0.00012623564 0.00020850227 0.0 3.271605e-06 0.1581106 0.15993902 1.9574813e-05 0.086888105
0.19031163 0.00038375685 0.00010913016 0.043876473 0.040873762 0.174899 0.000551837 0.042675443
0.00020097436 0.21895495 0.0053962064 5.3792657e-05 0.055974703 1.5564409e-06 0.03850473 3.0451562e-05
7.871446e-05 0.05372586 8.861547e-05 0.08886294 0.19318669 0.107329205 6.9927686e-05 0.05501932
0.00066558 0.09069442 2.4994106e-05 0.00021004454 0.21920416 8.913688e-06 0.016528534 0.000158378

lin4.model.1.weight f4 [1, 384, 1, 1]
00000000: 52b1 903d 439d 9438 643b b238 ac76 7738
00000010: 5eeb a23e 8e01 a537 523a 143e 22f3 9e39
00000020: 025e 1239 af91 1138 a1d7 d238 c0a2 3038
00000030: 8381 263e c1bd 6938 00b1 313d 3896 813e
00000040: 39d3 7539 a989 933e e4ad d63d b3a9 853d
00000050: 90f3 6b3c 2739 853e d8fa bb37 afa7 0c3d
00000060: 47a0 8038 26c6 da35 5154 6238 53d0 413c
00000070: f90c 2039 07c6 8d38 0c2a 983d 0bee 203f
00000080: f736 b038 da29 a93e 0d8d 8037 9b12 c93e
00000090: 1a22 0939 255f 2a3e 7c8c ce38 9225 a33e
000000a0: c963 0937 5bf7 683e 5a66 0433 4a13 ec3c
000000b0: 277b de3e 583b 2b3d a88b 8e38 da2d 7e3e
000000c0: 8ed9 ae38 cd65 0d3c 12ee ef3d 0a62 773e
000000d0: 771b 203e 9d4c ed3d c7ce 9138 9c58 2138
000000e0: 6f36 933e cf79 c73d 9470 513e 5168 963d
000000f0: 09fd 833d 5ca6 6439 b559 a039 cab2 c03d
00000100: 5a11 6638 58c4 8938 aea7 e238 19e9 c238
00000110: ed4f 243d e66b c738 4cb8 953d 08cf 3739
00000120: 0f19 1a3e 6b7f f339 f225 c73b a316 f83d
00000130: 1477 d938 b137 4739 57de 6938 a3d6 8d39
00000140: 98ea f738 6c4a 0d3e e7ab a13c 0000 0000
00000150: 74a6 253e 4629 b039 74b3 e13d 0946 673d
00000160: a10c 363e 45c4 cf3d 3524 2d3e cb1d f338
00000170: a924 2c3c 9b1c 0e38 194e 1d3e 6a8f b93c
00000180: 63c2 103c d703 403e e910 473e 2cde 383e
00000190: 7013 ae37 fe04 613e 6757 2a3e ad51 5939
000001a0: a834 c138 75b6 cc37 fb15 4c3e ab48 f238
000001b0: 72c5 723e 5ed9 033d 254d 363e 8443 e339
000001c0: 21ce 163e e706 273e 8042 c638 0595 5a38
000001d0: 0c06 813e a9b2 4c38 3528 9a3d af3b da3e
000001e0: 0ece a937 9000 823b 4bf4 1a38 519c ae3c
000001f0: bd11 c03d 4378 943d d449 9738 a98c f438
00000200: 690e 1d39 7ac3 b43e d61e ff3d ee04 ce3e
00000210: 04e2 423d ed22 e738 6179 1a3e a4d2 db37
00000220: 1ad5 8437 a4b5 2f3e aa84 7039 874f 3a3e
00000230: 29cc 7735 5e98 b237 1f7a 9436 97fa 433e
00000240: ae10 f83d 0f29 2e3d 5ec8 9938 ea7a e03d
00000250: 19dd 493e 1e9a e73d e0bb 1f38 af1d 2d38
00000260: 9957 fa38 6caa cb38 c14a a53e 49ce 8739
00000270: b3d4 a63d 556f 8538 b45e e63d 6ebc 4f3e
00000280: 2abd 5e3e e84b 903d 7b83 d53d 103f ec36
00000290: 48c7 403d a91a 503d 4fe3 7e38 341e 8237
000002a0: b18f 223e 86cf c23c 5d15 bd3d 4d3d a037
000002b0: d6b6 8e37 6d3e 5638 c926 9e3c 579e 313e
000002c0: 5990 8e3e 65ca 1b3e 5bfd 8538 9931 8a3d
000002d0: 9d44 b13e 57c7 d63d 42da fc3c e7b2 773d
000002e0: 4df7 aa38 e9cf 853b 6a4c 2738 7ef7 6d38
000002f0: 0000 0000 7f6b 9339 9bab 8e3e cbd7 8e3e
00000300: 5c3c c43c c9b4 4438 ea5a 8f3d 65ba 8835
00000310: d2b6 e338 d568 5339 a5d1 1439 5ab3 d438
00000320: 1724 1839 c0d7 0138 f4ca c339 0a90 823e
00000330: acb4 4539 cdf6 2039 23fe 2439 e40f 4a3e
00000340: 7162 163d e26f 473e f774 2c37 b908 bb3d
00000350: 1e95 043e 3773 443d 54ce 9138 cc95 813d
00000360: c2a9 5a38 53df 4e38 046b 6838 9707 6738
00000370: ced7 1538 9eb7 b038 7e71 8737 caa2 f238
00000380: 1366 f638 c355 9d38 b0f0 1e39 0b2e 0e37
00000390: a014 5b39 fe7e 8638 05e0 df3c dc9d 933d
000003a0: a381 8b37 b928 e93d 32f6 3139 a92f 9d38
000003b0: 0b7d 873d 7870 5e37 44b3 0d3a 4425 e038
000003c0: e182 ce38 dc56 293a 118a 473e 31b5 eb38
000003d0: 0089 8638 9e01 ab3d ea4e df3c 7947 6e38
000003e0: 4ea3 a93c 3806 ff3e 2641 a938 fbc2 0038
000003f0: 9718 6d3e 9975 9737 569f 1839 f95b 6b3e
0.07065071 7.086482e-05 8.498764e-05 5.899991e-05 0.31820196 1.9670257e-05 0.14475372 0.00030317256
0.00013958666 3.4706372e-05 0.00010053744 4.2113243e-05 0.16260342 5.572825e-05 0.04338169 0.2530992
0.00023443707 0.28815964 0.10482386 0.06526508 0.014401332 0.26020166 2.2408945e-05 0.034339603
6.1333696e-05 1.6299934e-06 5.3961125e-05 0.0118294535 0.00015263622 6.7602894e-05 0.07429895 0.62863225
8.402572e-05 0.33039743 1.5324471e-05 0.39272007 0.00013078042 0.16637857 9.849013e-05 0.318646
8.189069e-06 0.22750609 3.0826733e-08 0.028817791 0.43453333 0.04180464 6.797101e-05 0.24822178
8.337489e-05 0.008630228 0.1171533 0.24158493 0.15635477 0.115868784 6.952654e-05 3.8467915e-05
0.28752467 0.0974003 0.20453101 0.073441155 0.06444747 0.00021805748 0.00030584415 0.09409101
5.4852433e-05 6.569241e-05 0.000108077526 9.294059e-05 0.040115286 9.509157e-05 0.073105425 0.00017529365
0.15048622 0.00046443506 0.0060775215 0.121136926 0.00010369546 0.00018998866 5.57586e-05 0.00027053533
0.00011821574 0.13797921 0.01973529 0.0 0.16176778 0.00033600087 0.11020556 0.056463275
0.17778255 0.10144857 0.16908343 0.00011592692 0.010506787 3.388208e-05 0.15361823 0.022651393
0.008835408 0.18751465 0.19440044 0.18053502 2.0751468e-05 0.2197456 0.16634904 0.00020725159
9.212765e-05 2.4403658e-05 0.1993026 0.00011552995 0.23708132 0.03218972 0.17802866 0.00043347117
0.1472707 0.16311227 9.453762e-05 5.2114035e-05 0.25199926 4.880378e-05 0.075272 0.4262366
2.0242322e-05 0.003967352 3.6943977e-05 0.021314772 0.09378383 0.072495006 7.213993e-05 0.00011661027
0.00014978055 0.35305387 0.12457053 0.40238136 0.047578827 0.00011021444 0.15085365 2.6204922e-05
1.583486e-05 0.17159134 0.00022937605 0.181944 9.231176e-07 2.1290205e-05 4.4249605e-06 0.19138561
0.121125564 0.042519625 7.33293e-05 0.10960944 0.19713248 0.113086924 3.8083526e-05 4.127406e-05
0.00011937245 9.711538e-05 0.32283595 0.000259029 0.08146038 6.3626714e-05 0.11248532 0.20286724
0.21751848 0.07045728 0.104254685 7.0406895e-06 0.04706505 0.050806675 6.0770017e-05 1.5511272e-05
0.15875126 0.023780596 0.0923259 1.9102032e-05 1.7012859e-05 5.1079714e-05 0.019305604 0.17345558
0.27844504 0.15213926 6.389125e-05 0.06747741 0.3462266 0.1048724 0.030865792 0.06047335
8.152295e-05 0.0040836227 3.988707e-05 5.67357e-05 0.0 0.00028118116 0.278653 0.27899012
0.023954563 4.689841e-05 0.06999762 1.0187038e-06 0.000108582564 0.00020161581 0.00014192479 0.000101423546
0.00014509294 3.095693e-05 0.0003734451 0.25500518 0.0001885469 0.0001535073 0.00015734932 0.19732624
0.036714975 0.19476274 1.0279232e-05 0.09132523 0.12947509 0.04796144 6.9525704e-05 0.063273996
5.213335e-05 4.9322214e-05 5.5412776e-05 5.508176e-05 3.5725352e-05 8.426535e-05 1.6146103e-05 0.00011569781
0.00011749207 7.502318e-05 0.00015157717 8.47458e-06 0.00020893151 6.413272e-05 0.0273285 0.07207844
1.6630458e-05 0.1138472 0.0001697175 7.495221e-05 0.06615647 1.3258417e-05 0.0005405436 0.000106880936
9.8472236e-05 0.00064597814 0.19486262 0.00011239423 6.415136e-05 0.08349918 0.027259309 5.6810186e-05
0.020707753 0.49809432 8.070683e-05 3.0699168e-05 0.23153912 1.8055363e-05 0.00014555207 0.22984304

lin5.model.1.weight f4 [1, 512, 1, 1]
00000000: cdbe 8a3a 8c04 183c a153 5e3d 6959 803d
00000010: f99d 503e 98aa 1e3d 8b47 c83c 264e c938
00000020: 7beb 273e 6be4 1539 1029 8538 0000 0000
00000030: 00d3 193e cc0b 003d c720 b438 ade9 fb38
00000040: c0d6 9939 7d62 5a39 d69b cf3d 9e6f 2e39
00000050: 0000 0000 a681 9c38 8a2b 1336 a3c7 383e
00000060: 0be6 0d3a 5a4c 8b3d 4535 de3d 1657 d73d
00000070: df12 333e bd06 e03d a722 1f39 1157 073e
00000080: 9799 c33d 21c5 403e 011a 8739 60e5 ff3d
00000090: 3fb0 5639 ec50 8838 57b1 0c39 676b bf3b
000000a0: 66ca 2238 eccf 7238 4283 5b39 da31 133d
000000b0: 2d7e 843d 4803 a83d 3d75 303d 893e 6036
000000c0: d913 8339 cddf 9538 fb97 5439 0d4a 9e3c
000000d0: c7bd ea3d 65f5 3d36 6495 0c39 7f2f d53b
000000e0: c87b 7b38 136f 123c 08f7 bc38 0000 0000
000000f0: 5e72 8b3c aa29 353e 1291 d139 9783 7c38
00000100: fe20 1f39 46c4 a237 32bb 5239 062c 2c3e
00000110: ac60 463d 3937 c837 81da de3e b556 a33d
00000120: accc c63d a1b6 c138 467b 303e 0000 0000
00000130: 4a12 b738 ae33 c937 0fac 2a39 ef7b 9636
00000140: 3e34 5c38 063d 523e 9d74 4d39 50a9 d13d
00000150: e34d c238 9593 2237 5557 1f3e ae71 d938
00000160: 912c 0238 d6ce db38 0000 0000 dfb9 783d
00000170: 9e38 4638 28b3 1539 bb7c 673d 1bb8 023e
00000180: 1437 5f3d 378c d73d e6c9 bd39 b773 cb37
00000190: 2afe e037 7206 8737 0b52 9d38 fa1d d237
000001a0: d031 7a37 de74 e438 55f9 af3c 0e07 d53d
000001b0: 0000 0000 1894 653d b94b 923c 65ce 7138
000001c0: 2c58 5f3e 8c26 0137 0000 0000 5e31 9e3d
000001d0: 52a4 393e 209c 9e37 1822 6237 386b a63d
000001e0: 9244 4039 054b 3f3c 2cd7 4c3d 9847 153e
000001f0: 4fc5 5d39 faa8 5d3d ccd7 c039 3571 053e
00000200: a3e2 0a39 afcc bc38 2000 1e3e 2d3f ff3d
00000210: ab60 e337 9e37 0b37 6c3c e63d 4cb6 273d
00000220: da01 933d 2a68 1f39 c728 fd3c 0000 0000
00000230: 40c6 a73d 6278 a53c 3a05 8338 4b8e f83c
00000240: 391c 073e 0466 803d a1f1 103d a66b f838
00000250: 9a2e b036 dabe 563d e6bf 403e 48e4 8d39
00000260: d893 8a3d c625 513e c838 263c 790c 223d
00000270: 548b c438 6e45 1238 29b2 2d3c b28d f137
00000280: 3d13 273d 7150 c33d 5a10 8f3c a91c 6c3e
00000290: c9c0 3237 da05 b43d 3918 af36 ee41 2d39
000002a0: 7927 483d 3043 963c dc52 8339 7dd2 163e
000002b0: 9460 093e 2085 593d 5f5c 4a3d bc16 343e
000002c0: 6108 8f38 606f 3d38 6c1f 823e a569 a338
000002d0: 7241 103c 9af5 f43d 247a 7d38 22d9 023a
000002e0: 0886 ba38 23ac dd38 aaff 2237 8756 dd38
000002f0: 16b2 a63d 8ce3 7f3c db77 1e3e ecf0 603b
00000300: aa06 4a3e a749 c53d 6a81 e638 455a d139
00000310: af6a f639 fdd8 ca38 643d 7c3d ad28 cd38
00000320: fa38 7c3d ff85 e037 0000 0000 e48d 433e
00000330: 491d 3a39 5787 aa37 b985 e53d e33f 803d
00000340: 05a3 b73d f794 863d 1988 cd38 0000 0000
00000350: 2f8f b038 9103 863e e6f1 4938 1baa dc3d
00000360: 633c 163a 9315 bd38 e7c8 9d3d 0709 1739
00000370: 6250 9b38 a3e8 a93d 5e27 a33d 4e2b 403a
00000380: 76e5 3c3c f4a3 6c37 600b 6339 ec0b 9539
00000390: cd15 3b36 29e2 7c3e 58b7 8939 d63b c03d
000003a0: 480d bb37 b876 6138 3c74 a338 b38a fb38
000003b0: 11c1 8736 74af 1b38 246c a638 abac 9639
000003c0: 9dbd 523b d403 3138 d885 403e 0329 a93d
000003d0: 1ab6 0639 def8 3d3e 0b3e e23d e344 6f35
000003e0: 786f f337 b507 6c38 99f8 a63d 0826 fc3d
000003f0: b981 9739 df13 9a3d 9a6d e538 9b64 3d3e
0.0010585428 0.009278428 0.054278973 0.06267054 0.20372762 0.03873691 0.024448177 9.598983e-05
0.16398422 0.0001429484 6.349583e-05 0.0 0.15021896 0.03126125 8.589174e-05 0.00012012138
0.00029342435 0.0002082679 0.10137145 0.00016635514 0.0 7.4628086e-05 2.193005e-06 0.18044905
0.0005413002 0.06801672 0.10850004 0.10514657 0.17487668 0.10938785 0.0001517633 0.13216807
0.09550779 0.18825199 0.0002576858 0.12494922 0.00020474287 6.500058e-05 0.00013417505 0.005841661
3.8812308e-05 5.789094e-05 0.00020934365 0.035936214 0.064693786 0.08203751 0.043080557 3.3415001e-06
0.00025001055 7.14656e-05 0.00020274513 0.01932242 0.114619784 2.8306033e-06 0.00013407093 0.006505906
5.9958344e-05 0.008937615 9.010552e-05 0.0 0.017022308 0.17691675 0.00039971672 6.0204035e-05
0.00015175712 1.9403302e-05 0.00020096896 0.16813669 0.048432037 2.3867573e-05 0.4352608 0.079755224
0.09707007 9.2369744e-05 0.17234525 0.0 8.7295266e-05 2.3985132e-05 0.0001627656 4.484776e-06
5.250074e-05 0.20531091 0.00019593765 0.10237372 9.2651484e-05 9.690314e-06 0.15560658 0.00010368541
3.103592e-05 0.0001048126 0.0 0.060724135 4.7259608e-05 0.00014276488 0.056515437 0.12765543
0.054495886 0.10524791 0.00036199315 2.425337e-05 2.6821235e-05 1.6096255e-05 7.501625e-05 2.504791e-05
1.4912759e-05 0.000108936554 0.021481195 0.10401736 0.0 0.056049436 0.017858373 5.7651097e-05
0.21810979 7.697974e-06 0.0 0.0772426 0.1812909 1.890777e-05 1.3478588e-05 0.08125919
0.00018336091 0.011675601 0.05000989 0.14578092 0.00021149706 0.054116227 0.00036781875 0.13031466
0.00013245134 9.002664e-05 0.15429735 0.12463222 2.7105523e-05 8.297995e-06 0.11241993 0.040945336
0.071780875 0.00015202226 0.030903233 0.0 0.0819211 0.020199005 6.24754e-05 0.030341288
0.1319436 0.06269458 0.035386685 0.000118456126 5.250634e-06 0.052428104 0.18823203 0.00027063699
0.0676648 0.20424566 0.010145374 0.039562676 9.37196e-05 3.4873774e-05 0.010601559 2.879542e-05
0.04078983 0.09536827 0.017463852 0.23057808 1.0654513e-05 0.087901786 5.2182263e-06 0.00016523126
0.04886577 0.018342584 0.00025048002 0.14728732 0.13415748 0.053105474 0.0494045 0.17586797
6.820332e-05 4.5164838e-05 0.25414598 7.7921235e-05 0.008804666 0.11960907 6.0433653e-05 0.0004991462
8.8941364e-05 0.00010570164 9.715479e-06 0.00010554218 0.08139436 0.015618216 0.15475409 0.0034323288
0.19729105 0.09633189 0.0001099136 0.00039930842 0.00047000262 9.672528e-05 0.061581984 9.782738e-05
0.061577775 2.6765278e-05 0.0 0.19097096 0.00017749252 2.0328602e-05 0.11207146 0.062621854
0.089666404 0.065713815 9.800512e-05 0.0 8.419004e-05 0.26174596 4.814742e-05 0.107746325
0.0005731044 9.016241e-05 0.07704335 0.00014403845 7.4059484e-05 0.08296325 0.07966493 0.00073306717
0.011529317 1.41048695e-05 0.00021652645 0.00028428377 2.7877861e-06 0.24695648 0.00026267278 0.09386413
2.2298322e-05 5.3754746e-05 7.794096e-05 0.000119944474 4.0457894e-06 3.7118283e-05 7.9356396e-05 0.00028738877
0.0032156475 4.2203654e-05 0.18801057 0.082597755 0.00012847074 0.18551967 0.1104699 8.913468e-07
2.9019764e-05 5.6273962e-05 0.08152885 0.123119414 0.00028897615 0.07523321 0.00010939986 0.18495409

lin6.model.1.weight f4 [1, 512, 1, 1]
00000000: 303c 0b3e cec9 9539 630e c13d 2296 1d39
00000010: ab8b 0b39 8be8 4c3d 0de3 3a39 83bd 613d
00000020: 0d81 423d b001 db39 5802 dd3c 5168 0d37
00000030: c750 ee3c 80fa f539 0eec 1838 1e61 ae3a
00000040: a159 823a 680d 213d 79a0 9939 e209 083e
00000050: 6eaf d43c dc41 333e 0000 0000 438e ab3d
00000060: 109e 743d 156d d43d ba9e f638 9aa3 ee37
00000070: dd50 fd3c d013 8e3d 5ded 233e c4db a43d
00000080: 5d8a 783a 9b05 d93d 7c2c 0a3d 6628 1b3c
00000090: db8e b63c bc12 0b3b ba0b 223a a40e af39
000000a0: 167a 343d 3503 a539 2ea8 c93c 6dac e33c
000000b0: 24e4 493d 0dd9 b73d 1693 813d 241a 4f3d
000000c0: ef5c a63c 0bc4 0b3d dc64 b73c f661 aa39
000000d0: f4a8 f73d 8453 0739 2f15 393c 503b de3d
000000e0: eee0 fb39 f8ca 2239 7734 3b39 7089 b03d
000000f0: 567b 6b39 da1a 5c38 f22c fc39 15fc 583c
00000100: b38c 133e 971c 7239 3a29 453b 4113 4739
00000110: 5265 1b3d 15e1 4e3d 0a38 dd3d 37a3 5f3d
00000120: 27ac 503c ddb0 d83a 6b65 6d3d 2d0f 0f38
00000130: d737 3037 7c90 4c3c 8796 953d c7ca 9a3d
00000140: 9970 193a 726e 8c3b f476 813d 6cfe c63c
00000150: 0000 0000 0d67 3c3d cf31 df3b d211 b038
00000160: 3c91 203c 5846 063d 631e 853d 4b83 8f3d
00000170: e51c 8a3a 4620 6e3d 8365 9a37 9338 933d
00000180: be55 1e3d 5b52 d43c 6adf 883c f2c4 ca37
00000190: aec5 5a3c c14d 0339 b76e 983a 7ce1 a73d
000001a0: e23b 383a c4a4 3c3d e193 4f3c 1a64 4f3d
000001b0: 6854 863c fa27 243d b4c4 f13d 84fa ca3d
000001c0: 109d 2f37 0250 3f3b c275 203d b164 4e3d
000001d0: fb46 9f3d 4282 c13a 5359 cc39 1a2a 853d
000001e0: 81b3 bf39 708b 173e 1ad3 9339 24ae 783d
000001f0: 5e3a ba36 d497 903c 6fea ba3d 6191 803d
00000200: 2452 df39 1667 0e3d 0abc 9e3d d0a8 fe3d
00000210: 2ec6 6638 ff6a 663c e431 8f3d f77c 723d
00000220: 07f1 ae3d f15c 8e39 aeb1 4139 851f b13d
00000230: f1fc 343a f08a a138 5c00 5439 4ce0 0239
00000240: 530f cc39 f605 143a 2f38 4a3a a94b 363d
00000250: 22a0 043a 29cd ae3a e6f1 ad38 0000 0000
00000260: a0c4 ac3c 2bc6 c43c 2232 1938 3b1d da3c
00000270: 1a35 683d 6920 4839 aff2 0637 fe20 063d
00000280: e1f0 0c3e ff59 ab39 2e44 023d 27b5 9b3b
00000290: b229 633c a933 3a3d 6921 ae39 c1e8 ae39
000002a0: 7b24 123a b0a4 dc3d 19fd 273c f768 1f3d
000002b0: e13b 5137 38fd d13c 684b 9f3c 44f6 cf3c
000002c0: d844 e53c e73e 703d 226b 853b 3697 ca3c
000002d0: c764 4e3b ecfc 923d b94e 643c 6f40 0f3d
000002e0: 880e 973a c468 0a39 9ce5 103d e5b6 9f3d
000002f0: ee8b 353d a431 3c3d c311 1839 dba3 803c
00000300: 7d8a 043d 36d4 653d aad5 b53a 2780 ce3d
00000310: 94be e43d b885 823d 26d4 8739 de8c c138
00000320: 53fd cf39 9f24 253e b8a1 713a 5bd6 e539
00000330: c12f 813a e65f df3c ec26 e83d c98f 8d38
00000340: 7892 a337 a33b f13b 3b7f 623d 4cbd f93c
00000350: 398a a93c 6232 6639 7fed d63c b341 503b
00000360: 6c9c b138 cc94 e23d 2b4f 843d 7ea1 933c
00000370: bc46 df39 0452 093a 9002 cf3d bf19 8f3d
00000380: c3f7 903d 9c28 2038 fd60 7d3c 1e7c 8337
00000390: 924e 263d 6194 e337 4ab6 043d 8da9 083d
000003a0: d7ac 3e3d 84d9 593d f13f 053c 9141 513d
000003b0: ab55 f23d 2b7d cf3d 1649 553d 5c0a 0d3d
000003c0: 3915 613d f84b e038 9125 e03a 0000 0000
000003d0: ceb4 1f39 0f12 2d3d b351 4f3d a8d8 e53d
000003e0: bebc 0d3e 85ed 3239 24ac c13c dc94 033d
000003f0: 82dc 4339 74c2 8e39 8f5b cf38 1162 9538
0.13597178 0.0002856985 0.09426572 0.00015028616 0.00013308103 0.050026458 0.00017822925 0.055112373
0.047486354 0.00041772192 0.026978657 8.428543e-06 0.029091252 0.0004691668 3.6459467e-05 0.001330409
0.0009944924 0.039319426 0.00029301996 0.1328502 0.025962558 0.17505592 0.0 0.08376744
0.059721053 0.10372368 0.00011759759 2.8447994e-05 0.030922348 0.06937373 0.16008516 0.080497295
0.0009481067 0.10596772 0.03373383 0.009470081 0.022284916 0.0021220883 0.0006181557 0.0003338951
0.044061743 0.00031473642 0.024616327 0.02779218 0.049289837 0.08976946 0.063268825 0.05056204
0.020307986 0.034122508 0.02238696 0.00032497913 0.12092772 0.00012905715 0.0112965545 0.10851157
0.00048042036 0.00015525136 0.00017853254 0.08619964 0.00022457293 5.2477095e-05 0.00048098672 0.013243695
0.14409141 0.00023089569 0.0030084387 0.00018985292 0.037938423 0.050507624 0.10801704 0.054599013
0.012736357 0.0016532202 0.057958048 3.410799e-05 1.0503419e-05 0.01248562 0.073041014 0.07558208
0.0005853265 0.004285627 0.06321517 0.02429124 0.0 0.045996714 0.0068113576 8.395653e-05
0.009800252 0.03278193 0.064999364 0.07007464 0.0010537176 0.058136247 1.84055e-05 0.07188525
0.03865599 0.025918176 0.016708095 2.4171986e-05 0.013352795 0.00012522099 0.0011629675 0.081973046
0.0007027966 0.04605557 0.012669534 0.050632574 0.01639767 0.040077187 0.11805096 0.09911063
1.0467382e-05 0.0029191975 0.039174803 0.050388996 0.0777721 0.0014763551 0.00038976464 0.06502171
0.000365641 0.14799285 0.00028195308 0.06071295 5.550027e-06 0.017650522 0.09126746 0.06277729
0.00042595074 0.03476628 0.07750709 0.12434542 5.5020842e-05 0.014063596 0.06991938 0.059201207
0.08542066 0.00027153597 0.00018472105 0.0864859 0.0006904146 7.7029574e-05 0.0002021803 0.00012481323
0.0003892133 0.000564664 0.00077140605 0.04450575 0.0005059262 0.0013336289 8.29434e-05 0.0
0.021089852 0.024020275 3.6524732e-05 0.026625266 0.056691267 0.0001908556 8.043527e-06 0.032746308
0.13763763 0.00032682714 0.031803302 0.0047518197 0.013864921 0.045459423 0.0003321276 0.0003336128
0.0005574894 0.10773599 0.010253214 0.03891846 1.2471312e-05 0.02563344 0.019445136 0.025385983
0.027986929 0.05865374 0.004071609 0.024730306 0.0031493173 0.07177147 0.013934785 0.034973558
0.0011524716 0.00013199734 0.035375223 0.07798556 0.0443229 0.04594578 0.00014502466 0.015703132
0.032358635 0.056110583 0.0013872881 0.10083037 0.111691624 0.06373161 0.0002590727 9.229196e-05
0.00039670858 0.16127251 0.00092175184 0.0004383799 0.0009856151 0.027267408 0.11335549 6.750186e-05
1.9499319e-05 0.0073618456 0.055297118 0.030485772 0.020695793 0.00021953278 0.026236294 0.003177744
8.4691535e-05 0.11063537 0.064604126 0.018021341 0.00042586576 0.00052383565 0.10107911 0.069873326
0.07078507 3.8184793e-05 0.015465018 1.5674214e-05 0.040602274 2.7129603e-05 0.032400407 0.03336482
0.04655155 0.053185955 0.008132921 0.05108792 0.11832746 0.10131296 0.052071653 0.034433708
0.05495188 0.000106953026 0.0017101039 0.0 0.00015230777 0.04225355 0.050615024 0.112229645
0.1384153 0.00017063886 0.023641653 0.032124385 0.00018678795 0.0002722923 9.887583e-05 7.12314e-05
