src/loss/weights/rgb_watson_dct_trial0.pth (torch_old, 4326 bytes, 9 tensors)

w_tild f4 [3]
0	0xbee796e7	-0.45232317
1	0x3eac900a	0.33703643
2	0x3ef47da7	0.47752115

to_YCbCr.transform f4 [3, 3]
0	0x3e991687	0.299
1	0xbe2cbfb1	-0.1687
2	0x3f000000	0.5
3	0x3f1645a2	0.587
4	0xbea9a027	-0.3313
5	0xbed65fd9	-0.4187
6	0x3de978d5	0.114
7	0x3f000000	0.5
8	0xbda6809d	-0.0813

to_YCbCr.bias f4 [3]
0	0x00000000	0.0
1	0x3f000000	0.5
2	0x3f000000	0.5

ly.t_tild f4 [8, 8]
0	0x3f44742e	0.76739776
1	0x3f3d8245	0.740269
2	0x3f81795a	1.0115159
3	0x3fa6cd31	1.303137
4	0x3fb85520	1.4400978
5	0x3f5e366b	0.86801785
6	0x3fa776cf	1.3083133
7	0xbfceeec7	-1.6166619
8	0x3f3b1dd9	0.7309242
9	0x3fbc6514	1.4718347
10	0xbe15fdca	-0.14647594
11	0xbfb3e731	-1.4054929
12	0xbe627ba8	-0.22117484
13	0xbf6df56d	-0.92952615
14	0xbf96197b	-1.1726526
15	0xbf2d5ee8	-0.6772294
16	0x3f9a0af2	1.203459
17	0x3f8332c6	1.024987
18	0x3fc89fce	1.5673769
19	0x3f699cd2	0.91254914
20	0xbf23d145	-0.63991195
21	0xbfb3c326	-1.404393
22	0xbf9e96e3	-1.2389797
23	0xbf62e327	-0.88627857
24	0x3fb1b940	1.3884659
25	0x3f6e170c	0.93003917
26	0x3f8e676c	1.1125312
27	0x3f648b5a	0.89275134
28	0x3e85eda5	0.2615787
29	0xbea8d8db	-0.32977948
30	0xbf4c8e08	-0.7990422
31	0xbec7a7b8	-0.38995147
32	0x3fa8ede9	1.3197604
33	0x3f2c3ca7	0.6728005
34	0x3e9d3f28	0.30712247
35	0x3ec50a71	0.3848453
36	0xbec68448	-0.38772798
37	0x3c89a17e	0.016800638
38	0xbe01aa9f	-0.12662743
39	0x3edd6b3b	0.43245873
40	0x3f8ce84d	1.1008393
41	0xbe05bf89	-0.13061346
42	0xbf5779bc	-0.84170127
43	0xbd7e661d	-0.0621091
44	0xbe9d5a1a	-0.30732805
45	0x3e9e2dee	0.30894417
46	0x3f987098	1.1909361
47	0x3ffa0a54	1.9534402
48	0x3fc44cb3	1.5335907
49	0xbe376a2c	-0.17911595
50	0xbf108b2c	-0.5646236
51	0x3d4bd188	0.04976037
52	0xbcf628d9	-0.030048775
53	0x3f9dd5c6	1.2330863
54	0x4008f568	2.1399784
55	0x40275f7d	2.6152031
56	0xbfdd9f9d	-1.7314335
57	0xbdd1866d	-0.10230718
58	0xbe644266	-0.22290954
59	0x3c24a591	0.01004924
60	0x3f4164c4	0.7554438
61	0x3ff488e0	1.9104271
62	0x402263ce	2.5373416
63	0x403218a6	2.7827544

ly.dct.A f4 [8, 8]
0	0x3eb504f3	0.35355338
1	0x3eb504f3	0.35355338
2	0x3eb504f3	0.35355338
3	0x3eb504f3	0.35355338
4	0x3eb504f3	0.35355338
5	0x3eb504f3	0.35355338
6	0x3eb504f3	0.35355338
7	0x3eb504f3	0.35355338
8	0x3efb14be	0.49039263
9	0x3ed4db31	0.4157348
10	0x3e8e39da	0.27778512
11	0x3dc7c5c2	0.09754516
12	0xbdc7c5c2	-0.09754516
13	0xbe8e39da	-0.27778512
14	0xbed4db31	-0.4157348
15	0xbefb14be	-0.49039263
16	0x3eec835e	0.46193975
17	0x3e43ef15	0.19134171
18	0xbe43ef15	-0.19134171
19	0xbeec835e	-0.46193975
20	0xbeec835e	-0.46193975
21	0xbe43ef15	-0.19134171
22	0x3e43ef15	0.19134171
23	0x3eec835e	0.46193975
24	0x3ed4db31	0.4157348
25	0xbdc7c5c2	-0.09754516
26	0xbefb14be	-0.49039263
27	0xbe8e39da	-0.27778512
28	0x3e8e39da	0.27778512
29	0x3efb14be	0.49039263
30	0x3dc7c5c2	0.09754516
31	0xbed4db31	-0.4157348
32	0x3eb504f3	0.35355338
33	0xbeb504f3	-0.35355338
34	0xbeb504f3	-0.35355338
35	0x3eb504f3	0.35355338
36	0x3eb504f3	0.35355338
37	0xbeb504f3	-0.35355338
38	0xbeb504f3	-0.35355338
39	0x3eb504f3	0.35355338
40	0x3e8e39da	0.27778512
41	0xbefb14be	-0.49039263
42	0x3dc7c5c2	0.09754516
43	0x3ed4db31	0.4157348
44	0xbed4db31	-0.4157348
45	0xbdc7c5c2	-0.09754516
46	0x3efb14be	0.49039263
47	0xbe8e39da	-0.27778512
48	0x3e43ef15	0.19134171
49	0xbeec835e	-0.46193975
50	0x3eec835e	0.46193975
51	0xbe43ef15	-0.19134171
52	0xbe43ef15	-0.19134171
53	0x3eec835e	0.46193975
54	0xbeec835e	-0.46193975
55	0x3e43ef15	0.19134171
56	0x3dc7c5c2	0.09754516
57	0xbe8e39da	-0.27778512
58	0x3ed4db31	0.4157348
59	0xbefb14be	-0.49039263
60	0x3efb14be	0.49039263
61	0xbed4db31	-0.4157348
62	0x3e8e39da	0.27778512
63	0xbdc7c5c2	-0.09754516

lcb.t_tild f4 [8, 8]
0	0xbdacea15	-0.08443085
1	0x3eb34bea	0.35018855
2	0x3fb639c9	1.4236385
3	0x3ffd9143	1.9809955
4	0x4003876d	2.0551407
5	0x3fcb8b03	1.5901798
6	0x3f4c0e26	0.7970909
7	0xbe851b18	-0.25997233
8	0x3e17e1d3	0.14832239
9	0x3f4a189f	0.7894382
10	0x3f8b0104	1.0859685
11	0x3fb513a8	1.4146624
12	0x3f78b8ad	0.9715679
13	0x3f17ebfd	0.59344465
14	0xbf200d7b	-0.6252057
15	0xbfab7c0a	-1.3397229
16	0x3f8d2ad3	1.1028694
17	0x3f9218ff	1.1413878
18	0x3fe5447a	1.7911522
19	0x3fbcfdeb	1.476499
20	0x3f5cf87b	0.8631665
21	0x3d3c584a	0.045982637
22	0xbf36ff8a	-0.7148367
23	0xbfa39f60	-1.2783012
24	0x3fe0c1ad	1.7559105
25	0x3faaccf7	1.33438
26	0x3fbe0873	1.4846328
27	0x3f8d025d	1.1016346
28	0x3f115d20	0.5678272
29	0xbe51043c	-0.20411772
30	0xbf3d385b	-0.73914117
31	0xbf84ff34	-1.0390382
32	0x3fec9d35	1.8485476
33	0x3f982279	1.188552
34	0x3f8ecac1	1.1155626
35	0x3f0b173f	0.54332346
36	0x3c80bc06	0.015714657
37	0xbed4f209	-0.41590908
38	0xbf451064	-0.76978135
39	0xbf7e3c80	-0.99311066
40	0x3fcf5b92	1.619982
41	0x3f2c3d56	0.6728109
42	0x3eb634c2	0.35587126
43	0x3d31c66a	0.043402113
44	0xbebda5db	-0.370406
45	0xbf090f1a	-0.5353867
46	0xbea38531	-0.31937554
47	0x3f4caeda	0.799543
48	0x3faff495	1.3746516
49	0xbe8198f2	-0.25312
50	0xbf172c71	-0.5905219
51	0xbf13a3e2	-0.5767194
52	0xbf21ab2d	-0.6315182
53	0xbe7e444a	-0.24830738
54	0x3f810586	1.0079811
55	0x4013563f	2.302139
56	0xbe47562a	-0.19466463
57	0xbfb01ce0	-1.3758812
58	0xbf81a939	-1.0129768
59	0xbf5d3ce6	-0.8642105
60	0xbee0ef84	-0.43932736
61	0x3e9c981b	0.30584797
62	0x3fe652b2	1.7993987
63	0x3fe33f3c	1.7753673

lcb.dct.A f4 [8, 8]
0	0x3eb504f3	0.35355338
1	0x3eb504f3	0.35355338
2	0x3eb504f3	0.35355338
3	0x3eb504f3	0.35355338
4	0x3eb504f3	0.35355338
5	0x3eb504f3	0.35355338
6	0x3eb504f3	0.35355338
7	0x3eb504f3	0.35355338
8	0x3efb14be	0.49039263
9	0x3ed4db31	0.4157348
10	0x3e8e39da	0.27778512
11	0x3dc7c5c2	0.09754516
12	0xbdc7c5c2	-0.09754516
13	0xbe8e39da	-0.27778512
14	0xbed4db31	-0.4157348
15	0xbefb14be	-0.49039263
16	0x3eec835e	0.46193975
17	0x3e43ef15	0.19134171
18	0xbe43ef15	-0.19134171
19	0xbeec835e	-0.46193975
20	0xbeec835e	-0.46193975
21	0xbe43ef15	-0.19134171
22	0x3e43ef15	0.19134171
23	0x3eec835e	0.46193975
24	0x3ed4db31	0.4157348
25	0xbdc7c5c2	-0.09754516
26	0xbefb14be	-0.49039263
27	0xbe8e39da	-0.27778512
28	0x3e8e39da	0.27778512
29	0x3efb14be	0.49039263
30	0x3dc7c5c2	0.09754516
31	0xbed4db31	-0.4157348
32	0x3eb504f3	0.35355338
33	0xbeb504f3	-0.35355338
34	0xbeb504f3	-0.35355338
35	0x3eb504f3	0.35355338
36	0x3eb504f3	0.35355338
37	0xbeb504f3	-0.35355338
38	0xbeb504f3	-0.35355338
39	0x3eb504f3	0.35355338
40	0x3e8e39da	0.27778512
41	0xbefb14be	-0.49039263
42	0x3dc7c5c2	0.09754516
43	0x3ed4db31	0.4157348
44	0xbed4db31	-0.4157348
45	0xbdc7c5c2	-0.09754516
46	0x3efb14be	0.49039263
47	0xbe8e39da	-0.27778512
48	0x3e43ef15	0.19134171
49	0xbeec835e	-0.46193975
50	0x3eec835e	0.46193975
51	0xbe43ef15	-0.19134171
52	0xbe43ef15	-0.19134171
53	0x3eec835e	0.46193975
54	0xbeec835e	-0.46193975
55	0x3e43ef15	0.19134171
56	0x3dc7c5c2	0.09754516
57	0xbe8e39da	-0.27778512
58	0x3ed4db31	0.4157348
59	0xbefb14be	-0.49039263
60	0x3efb14be	0.49039263
61	0xbed4db31	-0.4157348
62	0x3e8e39da	0.27778512
63	0xbdc7c5c2	-0.09754516

lcr.t_tild f4 [8, 8]
0	0xbf015283	-0.5051653
1	0x3ec364c3	0.38162813
2	0x3fc70a38	1.5549994
3	0x400c7d3c	2.1951437
4	0x400f3f28	2.2382298
5	0x3fc6442e	1.5489557
6	0x3f832d4c	1.0248199
7	0xbefb738e	-0.491116
8	0x3e8a264f	0.26982352
9	0x3f60a9a7	0.8775887
10	0x3fa272e8	1.2691317
11	0x3fc4ff40	1.5390396
12	0x3fb077d4	1.3786569
13	0x3f3fc41b	0.7490861
14	0xbe983b46	-0.29732722
15	0x3d83c5e0	0.06434226
16	0x3f93c679	1.1544944
17	0x3f9a249e	1.2042425
18	0x3fd5e5fe	1.6710813
19	0x3fc992f9	1.5747977
20	0x3f8713b7	1.0552891
21	0x3e1f6ddf	0.15569256
22	0xbef03731	-0.46917108
23	0x3e048c13	0.12944059
24	0x3fdfe18c	1.7490706
25	0x3fb9d586	1.4518287
26	0x3fd283b2	1.644644
27	0x3fa392ed	1.2779213
28	0x3f39c664	0.72568345
29	0xbc1609ed	-0.00915764
30	0xbf3bc8e0	-0.73353386
31	0x3e9ad579	0.30240992
32	0x40056d44	2.084794
33	0x3fa62ee0	1.2983055
34	0x3f82698f	1.0188464
35	0x3f23977b	0.63903016
36	0x3e3c5692	0.18392399
37	0xbed0fb89	-0.40816906
38	0xbf40517b	-0.7512433
39	0xbe65df09	-0.22448362
40	0x3f9c2c8a	1.2201092
41	0x3f697c43	0.91205233
42	0x3ed17511	0.40909627
43	0x3de083fb	0.10962673
44	0x3dd50862	0.104019895
45	0xbee14b58	-0.44002795
46	0xbf244335	-0.6416505
47	0x40136f7f	2.3036802
48	0x3f7ebea6	0.99509656
49	0xbeb1c780	-0.3472252
50	0xbf22e4c7	-0.63630337
51	0xbf190319	-0.5977035
52	0xbf378a94	-0.7169583
53	0xbe742038	-0.23840415
54	0xbe05cc0a	-0.13066116
55	0x4032b60d	2.7923615
56	0x3d9da3b7	0.07697242
57	0xbf85527f	-1.0415801
58	0xbf873220	-1.0562172
59	0x3fc852fc	1.5650325
60	0x4016c5a5	2.3558133
61	0x400226c4	2.033616
62	0x3f8c3bd0	1.0955753
63	0x40550da9	3.3289587

lcr.dct.A f4 [8, 8]
0	0x3eb504f3	0.35355338
1	0x3eb504f3	0.35355338
2	0x3eb504f3	0.35355338
3	0x3eb504f3	0.35355338
4	0x3eb504f3	0.35355338
5	0x3eb504f3	0.35355338
6	0x3eb504f3	0.35355338
7	0x3eb504f3	0.35355338
8	0x3efb14be	0.49039263
9	0x3ed4db31	0.4157348
10	0x3e8e39da	0.27778512
11	0x3dc7c5c2	0.09754516
12	0xbdc7c5c2	-0.09754516
13	0xbe8e39da	-0.27778512
14	0xbed4db31	-0.4157348
15	0xbefb14be	-0.49039263
16	0x3eec835e	0.46193975
17	0x3e43ef15	0.19134171
18	0xbe43ef15	-0.19134171
19	0xbeec835e	-0.46193975
20	0xbeec835e	-0.46193975
21	0xbe43ef15	-0.19134171
22	0x3e43ef15	0.19134171
23	0x3eec835e	0.46193975
24	0x3ed4db31	0.4157348
25	0xbdc7c5c2	-0.09754516
26	0xbefb14be	-0.49039263
27	0xbe8e39da	-0.27778512
28	0x3e8e39da	0.27778512
29	0x3efb14be	0.49039263
30	0x3dc7c5c2	0.09754516
31	0xbed4db31	-0.4157348
32	0x3eb504f3	0.35355338
33	0xbeb504f3	-0.35355338
34	0xbeb504f3	-0.35355338
35	0x3eb504f3	0.35355338
36	0x3eb504f3	0.35355338
37	0xbeb504f3	-0.35355338
38	0xbeb504f3	-0.35355338
39	0x3eb504f3	0.35355338
40	0x3e8e39da	0.27778512
41	0xbefb14be	-0.49039263
42	0x3dc7c5c2	0.09754516
43	0x3ed4db31	0.4157348
44	0xbed4db31	-0.4157348
45	0xbdc7c5c2	-0.09754516
46	0x3efb14be	0.49039263
47	0xbe8e39da	-0.27778512
48	0x3e43ef15	0.19134171
49	0xbeec835e	-0.46193975
50	0x3eec835e	0.46193975
51	0xbe43ef15	-0.19134171
52	0xbe43ef15	-0.19134171
53	0x3eec835e	0.46193975
54	0xbeec835e	-0.46193975
55	0x3e43ef15	0.19134171
56	0x3dc7c5c2	0.09754516
57	0xbe8e39da	-0.27778512
58	0x3ed4db31	0.4157348
59	0xbefb14be	-0.49039263
60	0x3efb14be	0.49039263
61	0xbed4db31	-0.4157348
62	0x3e8e39da	0.27778512
63	0xbdc7c5c2	-0.09754516
