src/loss/weights/rgb_pnet_lin_vgg_trial0.pth (torch_old, 7297 bytes, 5 tensors)

lin0.model.1.weight f4 [1, 64, 1, 1]
5.806687e-06 1.4599768e-06 8.6964525e-07 1.1183774e-05 6.8082772e-06 9.163028e-06 1.6811622e-05 2.307824e-06
4.000302e-06 0.8706233 3.085109e-06 7.842248e-07 0.0 0.0 3.323529e-06 0.14848395
3.3949505e-06 0.0 6.6695934e-06 0.47265276 0.7538363 2.8197459e-05 0.0 0.53080744
1.25977285e-05 0.0 0.48658726 0.0 0.41449764 8.9135965e-06 1.1136302e-05 2.0018493e-05
5.5640685e-06 0.0 3.2987068e-06 7.5665057e-06 4.56469e-06 0.33558422 9.68308e-06 3.072846e-06
1.5286125e-05 0.24253277 3.3988933e-06 2.9474224e-06 1.7654103e-06 4.2161305e-06 0.3549229 3.0650904e-06
2.380515e-06 2.8461745e-06 1.264137e-06 5.8085375e-06 2.19305e-06 6.429878e-06 3.8526096e-06 0.0
0.2681596 3.2503644e-07 8.873797e-06 3.1770785e-06 0.2607268 7.665071e-06 1.8882249e-06 3.654514e-06
00000000: 10d7 c236 6cf4 c335 9171 6935 f2a1 3b37
00000010: a872 e436 e8ba 1937 af06 8d37 1de0 1a36
00000020: 553a 8636 2be1 5e3f c509 4f36 8583 5235
00000030: 0000 0000 0000 0000 cb09 5f36 2d0c 183e
00000040: ced4 6336 0000 0000 5fcb df36 8bff f13e
00000050: 6afb 403f 9589 ec37 0000 0000 ffe2 073f
00000060: d55a 5337 0000 0000 f721 f93e 0000 0000
00000070: 0939 d43e 9b8b 1537 0ed6 3a37 63ed a737
00000080: fcb2 ba36 0000 0000 5a5f 5d36 cae3 fd36
00000090: 632a 9936 b2d1 ab3e 8374 2237 1837 4e36
000000a0: b43a 8037 835a 783e 8b18 6436 55cc 4536
000000b0: 09f3 ec35 4978 8d36 74b8 b53e dab1 4d36
000000c0: f0c0 1f36 e800 3f36 6bab a935 f5e6 c236
000000d0: 502c 1336 3bc0 d736 aa45 8136 0000 0000
000000e0: 374c 893e ab80 ae34 abe0 1437 cb35 5536
000000f0: fc7d 853e 3b99 0037 ea6e fd35 1340 7536

lin1.model.1.weight f4 [1, 128, 1, 1]
2.1509666e-06 0.432877 1.0606074e-06 3.1645768e-06 7.0327505e-06 0.0 0.12946768 3.3484773e-06
0.0 5.183892e-06 0.0 3.912475e-06 1.2503657e-06 0.0 1.5906671e-05 6.0263824e-06
0.0 0.0 1.8979493e-06 4.7181134e-06 0.0 1.8865346e-06 0.0 0.0
0.2208178 8.040695e-06 9.746037e-06 3.5998414e-06 0.0 5.6890386e-09 0.0 1.1976728e-07
1.4845277e-06 7.730336e-06 2.2429583e-06 4.4158674e-06 4.4513286e-06 6.109532e-07 4.0237596e-06 2.3619582e-06
0.0 3.5793057e-06 1.6182263e-05 0.0 1.4039146e-06 0.0 0.0 3.8464354e-06
1.8255172e-06 0.26117954 3.1241377e-06 5.847237e-07 4.0574037e-06 1.2046652e-05 1.495678e-05 0.0
0.0 0.0 0.0 2.399754e-06 0.14413145 3.0676053e-06 6.4891956e-06 0.0
0.5011579 5.2451196e-06 3.3043052e-06 1.5149243e-06 1.06647385e-05 4.1584767e-06 1.6408528e-06 1.9325148e-06
2.0760272e-06 0.0 0.0 3.4977247e-06 0.25974825 0.19033274 0.0 0.0
1.6108363e-05 3.845838e-06 8.765151e-06 3.2069495e-06 2.7748943e-05 0.0 0.0 0.08755354
0.0 1.3351154e-05 1.8451358e-06 5.5848323e-06 4.3517247e-07 0.0 7.5339663e-06 0.0
5.7501456e-06 0.0 0.0 1.3681862e-05 7.147635e-06 9.727667e-06 0.0 1.1394487e-05
2.8666752e-06 1.0819588e-06 2.6719965e-06 0.0 9.837432e-06 0.042409483 5.6867754e-07 0.0
3.7303455e-06 1.4046502e-06 7.783409e-06 0.0 0.0 1.5217739e-06 6.551687e-06 5.8424666e-06
4.4698313e-06 6.691449e-05 4.7829025e-07 1.0539561e-05 8.5647685e-07 2.3357406e-06 3.630072e-06 1.3155283e-05
00000000: 5359 1036 0ea2 dd3e 315a 8e35 045f 5436
00000010: defa eb36 0000 0000 2d93 043e 67b6 6036
00000020: 0000 0000 4bf1 ad36 0000 0000 e847 8336
00000030: 3dd2 a735 0000 0000 516f 8537 3b36 ca36
00000040: 0000 0000 0000 0000 0bbd fe35 4950 9e36
00000050: 0000 0000 d634 fd35 0000 0000 0000 0000
00000060: 101e 623e 86e6 0637 e982 2337 ce94 7136
00000070: 0000 0000 5079 c331 0000 0000 6199 0034
00000080: fc3f c735 8ab1 0137 bb85 1636 032c 9436
00000090: 9f5c 9536 6200 2435 d503 8736 2282 1e36
000000a0: 0000 0000 0134 7036 25bf 8737 0000 0000
000000b0: 236e bc35 0000 0000 0000 0000 a110 8136
000000c0: 4b04 f535 53b9 853e 47a8 5136 e8f5 1c35
000000d0: d524 8836 fa1b 4a37 e2ee 7a37 0000 0000
000000e0: 0000 0000 0000 0000 0000 0000 760b 2136
000000f0: 3297 133e 0fdd 4d36 c4bd d936 0000 0000
00000100: e24b 003f 3cff af36 88bf 5d36 6754 cb35
00000110: b4ec 3237 0b89 8b36 463b dc35 5ab0 0136
00000120: e051 0b36 0000 0000 0000 0000 74ba 6a36
00000130: b9fd 843e 96e6 423e 0000 0000 0000 0000
00000140: 7220 8737 7f0b 8136 090e 1337 f936 5736
00000150: 67c6 e837 0000 0000 0000 0000 454f b33d
00000160: 0000 0000 c5fe 5f37 62a6 f735 5865 bb36
00000170: a6a1 e934 0000 0000 47cc fc36 0000 0000
00000180: 60f1 c036 0000 0000 0000 0000 268b 6537
00000190: b8d5 ef36 0334 2337 0000 0000 f32a 3f37
000001a0: 1b61 4036 d237 9135 8d50 3336 0000 0000
000001b0: 730b 2537 91b5 2d3d 39a7 1835 0000 0000
000001c0: d956 7a36 6a87 bc35 7d95 0237 0000 0000
000001d0: 0000 0000 c13f cc35 90d6 db36 680a c436
000001e0: 8ffb 9536 7154 8c38 db63 0035 12d3 3037
000001f0: a4e8 6535 b8bf 1c36 299c 7336 83b5 5c37

lin2.model.1.weight f4 [1, 256, 1, 1]
7.2718594e-06 3.1250987e-05 0.0 0.0 2.532422e-05 8.466355e-06 1.9683974e-05 1.3043487e-05
8.361117e-06 4.1544925e-05 2.3726227e-05 7.013994e-06 5.983111e-07 0.0 5.4792723e-05 2.3421291e-05
3.4814318e-06 3.477783e-05 2.3527573e-06 0.0 2.9391946e-05 0.048429817 0.0 0.0
1.7420676e-05 0.0 7.579651e-06 0.0 0.0 0.0 2.0002912e-05 0.0
1.0223439e-06 4.066108e-05 6.2760982e-06 3.5924284e-05 3.4301474e-06 1.739311e-05 4.7266144e-06 1.317799e-05
1.4317701e-06 1.5266056e-05 0.0 0.0 4.9158192e-05 1.804432e-05 0.0 1.3461021e-05
8.096671e-06 2.5696106e-06 0.0 6.3572434e-06 2.3810606e-05 0.0 3.926802e-06 1.181451e-05
0.0 0.0 0.0 1.8523991e-05 2.0476054e-05 4.7837316e-06 4.3263164e-05 1.5653977e-05
0.0 5.5793663e-07 1.2051449e-05 7.4933755e-06 1.9322068e-05 0.0 7.20458e-06 9.538495e-06
3.3656975e-06 0.0 0.0 0.0 0.0 2.0661024e-05 2.4349723e-05 2.502776e-06
6.7836086e-06 3.621215e-05 3.3764452e-06 1.607466e-06 0.0 2.6115731e-05 0.0 0.0
5.8070473e-05 3.183272e-05 1.5255886e-05 0.0002465298 5.2519958e-05 1.13884935e-05 8.620782e-06 0.0
3.9199017e-06 1.0887846e-06 2.511499e-05 4.9483966e-05 2.6482518e-05 1.0074865e-05 0.0 1.0473371e-05
2.5213323e-05 1.9152587e-05 0.00016827091 0.0 0.0 9.336795e-05 2.069433e-05 6.7984784e-06
0.52806973 6.6119945e-05 0.00041888223 0.0 1.4356851e-05 3.978556e-05 0.0 4.519547e-06
0.46750283 3.7075588e-06 3.5755174e-06 6.7415067e-06 0.0 3.1458487e-06 7.1343175e-07 1.2059531e-05
5.3101357e-06 1.5671736e-05 2.5938129e-05 2.6203626e-05 1.9563588e-05 3.7864465e-06 1.6159105e-05 0.0
0.00021859107 5.2341533e-05 2.0445983e-05 4.904587e-07 1.097478e-05 0.0 3.2317175e-06 3.264369e-06
2.574705e-06 1.2419763e-06 2.5574495e-06 0.0 0.0 9.261352e-06 6.558713e-05 0.0
8.758554e-06 7.788596e-06 9.551268e-06 0.0 2.3494988e-05 7.226519e-07 8.7960525e-06 2.2678436e-05
2.480558e-05 0.0 2.6265085e-05 2.5166202e-05 9.412219e-06 1.1033338e-05 0.0 8.059599e-05
0.0 0.0 3.389638e-05 7.194216e-06 5.9420466e-07 0.26877517 1.4729886e-05 0.0
1.4796383e-05 1.8596573e-05 1.8069435e-05 0.0 0.0 0.072184466 0.0 2.4706087e-05
3.8447035e-07 2.0450014e-05 5.46887e-06 3.3761964e-06 0.0 0.0 0.0 5.9449576e-05
6.35288e-06 2.6813098e-06 4.3869702e-05 7.393579e-06 0.0 2.0782697e-06 1.3710806e-05 1.0233879e-05
3.1109994e-06 1.0780333e-05 2.1345153e-05 3.0771967e-05 2.7930897e-05 3.6524038e-05 2.2759313e-07 0.0
0.0 2.072948e-05 0.053728417 1.6452139e-05 1.9162776e-06 3.2568234e-05 2.6610289e-05 4.3857526e-05
0.0 0.0 8.3463865e-06 4.6450295e-05 1.1421652e-05 4.5532e-08 3.1912445e-05 0.0
0.0 4.78198e-06 1.9986457e-05 0.0 2.9624847e-05 2.2427343e-05 0.03344084 1.3250367e-05
3.1568212e-05 5.964755e-05 9.704456e-06 0.0 6.106073e-06 0.0 2.7546848e-06 0.0
8.966786e-06 5.4992897e-06 2.2239441e-05 3.2662854e-05 0.0 1.0105983e-05 1.6771634e-06 2.8395625e-05
0.0 5.2860607e-08 1.5136471e-05 3.8702556e-06 5.26011e-07 0.0 3.277215e-05 0.0
00000000: cc00 f436 7e13 0338 0000 0000 0000 0000
00000010: 596f d437 b80a 0e37 031f a537 5ad5 5a37
00000020: b946 0c37 8640 2e38 af07 c737 c059 eb36
00000030: a09b 2035 0000 0000 3dd1 6538 d778 c437
00000040: 8ba2 6936 69de 1138 10e4 1d36 0000 0000
00000050: b98e f637 585e 463d 0000 0000 0000 0000
00000060: 9e22 9237 0000 0000 b554 fe36 0000 0000
00000070: 0000 0000 0000 0000 edcb a737 0000 0000
00000080: 7837 8935 818b 2a38 4697 d236 68ad 1638
00000090: 7c31 6636 6be7 9137 4f99 9e36 0917 5d37
000000a0: 3f2b c035 9b0f 8037 0000 0000 0000 0000
000000b0: 352f 4e38 e25d 9737 0000 0000 a5d6 6137
000000c0: f0d6 0737 9371 2c36 0000 0000 4e50 d536
000000d0: e3bc c737 0000 0000 f9c2 8336 ef36 4637
000000e0: 0000 0000 0000 0000 0000 0000 f863 9b37
000000f0: fec3 ab37 f183 a036 7875 3538 a950 8337
00000100: 0000 0000 1dc5 1535 9430 4a37 9b6f fb36
00000110: d315 a237 0000 0000 dfbe f136 8607 2037
00000120: 3ede 6136 0000 0000 0000 0000 0000 0000
00000130: 0000 0000 3651 ad37 a242 cc37 5df5 2736
00000140: c19e e336 80e2 1738 e396 6236 1cc0 d735
00000150: 0000 0000 1b13 db37 0000 0000 0000 0000
00000160: b290 7338 1f84 0538 88f3 7f37 ab40 8139
00000170: e048 5c38 3511 3f37 faa1 1037 0000 0000
00000180: b387 8336 5b22 9235 08ae d237 018d 4f38
00000190: c626 de37 3707 2937 0000 0000 c9b6 2f37
000001a0: 3381 d337 dea9 a037 e171 3039 0000 0000
000001b0: 0000 0000 89ce c338 bc98 ad37 7c1e e436
000001c0: 942f 073f e0a9 8a38 6c9d db39 0000 0000
000001d0: 35de 7037 6bdf 2638 0000 0000 9da6 9736
000001e0: 885c ef3e 60cf 7836 ecf2 6f36 1a35 e236
000001f0: 0000 0000 451d 5336 a882 3f35 4b53 4a37
00000200: b82d b236 cc76 8337 b595 d937 dccf db37
00000210: 7c1c a437 a81a 7e36 6a8d 8737 0000 0000
00000220: 9835 6539 4b89 5b38 6a83 ab37 11a8 0335
00000230: 5220 3837 0000 0000 7ce0 5836 6f11 5b36
00000240: 18c9 2c36 fbb1 a635 a6a0 2b36 0000 0000
00000250: 0000 0000 3461 1b37 d38b 8938 0000 0000
00000260: b4f1 1237 c4ab 0237 623e 2037 0000 0000
00000270: 1a17 c537 43fc 4135 c292 1337 923d be37
00000280: 9415 d037 0000 0000 d753 dc37 021c d337
00000290: 2ce9 1d37 d31b 3937 0000 0000 a505 a938
000002a0: 0000 0000 0000 0000 f62b 0e38 d865 f136
000002b0: 6f81 1f35 e69c 893e 6120 7737 0000 0000
000002c0: fb3d 7837 d6ff 9b37 d193 9737 0000 0000
000002d0: 0000 0000 73d5 933d 0000 0000 eb3f cf37
000002e0: 3469 ce34 128c ab37 3c81 b736 9d92 6236
000002f0: 0000 0000 0000 0000 0000 0000 7f59 7938
00000300: d32a d536 8df0 3336 bc00 3838 5c16 f836
00000310: 0000 0000 6778 0b36 7707 6637 2db2 2b37
00000320: 90c6 5036 2ddd 3437 5e0e b337 2611 0138
00000330: 254d ea37 6331 1938 5360 7434 0000 0000
00000340: 0000 0000 38e4 ad37 5412 5c3d b302 8a37
00000350: 6699 0036 e099 0838 2939 df37 a9f3 3738
00000360: 0000 0000 0000 0000 7507 0c37 a0d3 4238
00000370: 9f9f 3f37 f78e 4333 bad9 0538 0000 0000
00000380: 0000 0000 e574 a036 97a8 a737 0000 0000
00000390: e082 f837 5a22 bc37 43f9 083d e54d 5e37
000003a0: 1c68 0438 122e 7a38 52d0 2237 0000 0000
000003b0: c5e2 cc36 0000 0000 20dd 3836 0000 0000
000003c0: 0d70 1637 8a86 b836 d68e ba37 79ff 0838
000003d0: 0000 0000 de8c 2937 e51a e135 2433 ee37
000003e0: 0000 0000 da08 6333 a6f2 7d37 3edd 8136
000003f0: 3333 0d35 0000 0000 d474 0938 0000 0000

lin3.model.1.weight f4 [1, 512, 1, 1]
0.00031301423 0.00013039858 0.18980151 0.048812192 0.11145 0.00013356049 2.4069253e-05 5.7473208e-05
0.00023308964 0.13499701 0.0861812 1.739137e-05 4.4183735e-06 3.4553625e-05 2.9588651e-05 0.00018055658
0.033752352 0.0002664854 0.34341726 2.2758608e-05 9.038107e-05 0.14762743 3.3920824e-05 0.07867678
0.11061809 2.5275727e-05 0.24461879 0.012126359 0.00017720956 0.00019306796 2.94391e-05 0.00010035334
0.0 6.1899904e-05 0.23427032 0.18458056 2.607674e-06 0.00060823705 5.516052e-06 0.01259299
4.7913527e-05 0.10815449 3.7486102e-06 0.090999216 0.00026808772 0.00020739781 0.1989508 0.00030584232
0.033397324 0.061722517 0.08511247 0.036930375 0.041634746 3.5310877e-05 6.783775e-05 1.2075953e-05
0.17118327 0.43707612 0.076386265 2.9913208e-06 6.8009846e-05 0.27544394 0.00010470301 1.0809622e-05
0.051826004 0.00012684992 0.0 0.0001407793 0.29887968 2.841904e-06 0.07383015 0.00024241745
0.00015523564 5.7377525e-05 0.03849367 0.0003297686 0.15061422 0.015135748 0.15043661 0.10868252
1.5303136e-05 0.00014824739 4.980575e-05 8.8164314e-05 3.1261687e-05 0.14845265 0.001139216 7.5337884e-05
0.00010143653 0.053717278 2.1148635e-05 0.072019175 0.004548357 0.0 0.0 1.5594685e-05
0.13022585 0.00024516621 4.1133712e-06 0.1243271 0.18368128 1.0239379e-05 0.029474882 4.327653e-05
0.003799628 3.2375162e-06 0.07169784 0.00042244393 0.096048094 0.00016284571 0.15212683 0.00018747813
9.734834e-06 2.6484304e-05 0.1912795 0.00016599201 0.03678481 0.05263885 0.06914157 0.1612525
0.016573653 0.027558919 1.02847e-05 0.0007513813 0.0003039611 5.110206e-05 0.00040220298 6.387327e-05
4.5497753e-05 0.0019109191 0.11059715 0.07874368 3.1859377e-05 0.003750328 0.25168964 0.02181669
5.1122388e-05 0.10516016 2.7573948e-05 8.0255595e-06 6.348621e-05 0.03806407 9.326743e-05 1.8963286e-05
0.0 0.06251557 6.004066e-05 0.0002088883 0.008458926 7.206822e-05 0.00014520994 0.102872126
0.12392192 0.00012384781 4.465934e-05 6.38076e-05 0.0 8.8144225e-05 0.041453972 0.00020411126
0.0 0.00015738564 0.00010602512 0.013146799 0.00016733467 0.005415453 4.381192e-05 0.07186577
7.5936965e-05 3.662208e-05 1.8651146e-05 9.7077034e-05 3.5967685e-05 0.00013753794 0.015634403 0.0001231182
0.00037547422 0.10986533 3.6288897e-05 4.468955e-05 0.14884281 0.09853732 0.00027177224 0.0017654606
8.392605e-05 0.00040425546 7.076295e-05 0.00013478777 0.009493224 0.0 0.00047232298 0.071904555
4.2321455e-05 0.10361149 4.8134036e-05 4.5907727e-05 0.0 0.30697432 0.10840479 9.280071e-05
5.3278523e-05 4.2678143e-06 0.026617711 0.06650474 0.00027266887 3.553893e-05 0.00069367624 2.5668336e-05
1.1095987e-05 3.6098802e-06 0.11157045 5.316253e-05 0.00031250465 4.7454178e-05 3.733005e-05 0.5376397
0.2750953 0.15677501 0.00013931708 0.00013755975 7.1405855e-05 0.13921209 0.00018805286 8.054944e-05
0.016737973 0.17514528 0.007902437 0.04362678 2.6558446e-05 0.0003281978 0.038685136 1.8416234e-06
0.059194423 3.7620863e-05 0.051803857 0.01603178 0.0006206542 0.34825936 6.134328e-07 1.7786202e-05
0.15581514 3.8226146e-05 7.573936e-05 0.0 0.00015622428 0.07317665 0.008741649 0.082693085
0.00020738502 3.6004456e-06 1.8695342e-05 0.0 0.009982336 0.00031705308 4.26061e-05 0.14709845
00000000: 0f1c a439 9abb 0839 545b 423e 4bef 473d
00000010: e63f e43d 5f0c 0c39 54e8 c937 630f 7138
00000020: 8669 7439 a83c 0a3e c57f b03d afe3 9137
00000030: 8a41 9436 aced 1038 2535 f837 ca53 3d39
00000040: e83f 0a3d 11b7 8b39 63d4 af3e bde9 be37
00000050: f88a bd38 a52b 173e 3546 0e38 4b21 a13d
00000060: bd8b e23d 3607 d437 597d 7a3e a3ad 463c
00000070: 54d1 3939 4972 4a39 fcf3 f637 ca74 d238
00000080: 0000 0000 42d0 8138 8fe4 6f3e b002 3d3e
00000090: 80ff 2e36 1972 1f3a 8716 b936 d452 4e3c
000000a0: c2f6 4838 1a80 dd3d a290 7b36 cc5d ba3d
000000b0: 208e 8c39 ed78 5939 c2b9 4b3e 7659 a039
000000c0: a2cb 083d c0d0 7c3d 724f ae3d 4e44 173d
000000d0: 3289 2a3d c41a 1438 1d44 8e38 d399 4a37
000000e0: ab4a 2f3e 71c8 df3e 6770 9c3d 80be 4836
000000f0: 82a0 8e38 fd06 8d3e 0094 db38 f95a 3537
00000100: 8147 543d 0403 0539 0000 0000 289e 1339
00000110: c206 993e 8ab7 3e36 4334 973d 7031 7e39
00000120: c0c6 2239 a6a8 7038 8aab 1d3d cbe4 ac39
00000130: 9d3a 1a3e eefb 773c 0e0c 1a3e f194 de3d
00000140: 3c5f 8037 db72 1b39 84e6 5038 dbe4 b838
00000150: fb1e 0338 f903 183e bf51 953a b8fe 9d38
00000160: 53ba d438 a606 5c3d 5968 b137 ca7e 933d
00000170: 620a 953b 0000 0000 0000 0000 55d1 8237
00000180: ed59 053e a789 8039 9705 8a36 359f fe3d
00000190: f216 3c3e ccc9 2b37 4f75 f13c d283 3538
000001a0: 2e03 793b 1b44 5936 51d6 923d 777b dd39
000001b0: ddb4 c43d 90c1 2a39 23c7 1b3e c795 4439
000001c0: cb52 2337 9c2a de37 c6de 433e 240e 2e39
000001d0: abab 163d d69b 573d 189a 8d3d 601f 253e
000001e0: 78c5 873c 3ec3 e13c 738c 2c37 58f8 443a
000001f0: f85c 9f39 6b56 5638 c5de d239 b3f3 8538
00000200: d7d4 3e38 ce77 fa3a c280 e23d 5e44 a13d
00000210: bfa0 0538 10c8 753b 77dd 803e eab8 b23c
00000220: 3f6c 5638 365e d73d 9a4e e737 84a5 0637
00000230: e623 8538 12e9 1b3d 9298 c338 5913 9f37
00000240: 0000 0000 2a08 803d 2bd4 7b38 0709 5b39
00000250: 4f97 0a3c 5523 9738 7f43 1839 9fae d23d
00000260: c7ca fd3d 25dd 0139 9a50 3b38 72d0 8538
00000270: 0000 0000 12da b838 a4cb 293d b306 5639
00000280: 0000 0000 e307 2539 ce59 de38 ac65 573c
00000290: 8f76 2f39 1d74 b13b b1c2 3738 5c2e 933d
000002a0: 5940 9f38 a99a 1938 0875 9c37 d695 cb38
000002b0: 02dc 1638 0f38 1039 b813 803c 4a19 0139
000002c0: 4cdb c439 1301 e13d e834 1838 0a71 3b38
000002d0: 406a 183e efcd c93d a77c 8e39 0767 e73a
000002e0: 7401 b038 40f2 d339 9266 9438 d155 0d39
000002f0: 7889 1b3c 0000 0000 1ea2 f739 b242 933d
00000300: 5182 3138 4332 d43d 87e3 4938 0c8d 4038
00000310: 0000 0000 bd2b 9d3e 5503 de3d 009e c238
00000320: 6177 5f38 3f34 8f36 630d da3c a333 883d
00000330: fff4 8e39 a30f 1538 d3d7 353a 5552 d737
00000340: e728 3a37 4541 7236 0c7f e43d d5fa 5e38
00000350: aad7 a339 8909 4738 d692 1c38 c1a2 093f
00000360: 4bd9 8c3e a189 203e a515 1239 ea3d 1039
00000370: babf 9538 9d8d 0e3e 0e30 4539 a7ec a838
00000380: 131e 893c 4959 333e 3979 013c ffb1 323d
00000390: d4c9 de37 f711 ac39 4e74 1e3d b32d f735
000003a0: da75 723d 18cb 1d38 4830 543d 1455 833c
000003b0: 66b3 223a 0d4f b23e c8aa 2435 9433 9537
000003c0: 018e 1f3e 0355 2038 42d6 9e38 0000 0000
000003d0: 23d0 2339 a4dd 953d 2239 0f3c fe5a a93d
000003e0: 7e75 5939 2f9f 7136 f1d3 9c37 0000 0000
000003f0: f48c 233c 253a a639 f4b3 3238 faa0 163e

lin4.model.1.weight f4 [1, 512, 1, 1]
0.00042055672 0.098045096 0.014802466 0.031782087 0.046124835 0.07168074 5.643993e-06 0.050144117
0.07737715 0.022892423 0.07901932 0.20780405 0.15545835 0.00089995004 0.0731357 0.03482363
0.017639495 0.016448835 0.00737811 0.00024049907 0.061999153 0.12359353 0.028896566 0.00027375677
0.112773165 0.044355568 0.09322839 0.0407853 0.031298265 0.089240916 0.12599802 0.09693487
0.03697835 0.035543952 0.045483164 0.06563458 0.00050847186 0.00030173478 0.02801694 0.10847504
0.0027446207 0.063241534 0.07519969 0.031228874 0.07580153 0.14861056 0.10922951 0.09068206
0.040290106 0.07515421 0.00011061266 0.02717878 0.091578856 0.058429215 0.028150413 0.07042133
0.1289991 0.013176776 0.12264993 0.10725953 0.061111063 0.015703632 0.019993829 0.08690418
0.093947 0.03752081 8.765369e-05 0.15761137 0.010439546 0.12251591 0.08432391 2.1310758e-05
0.07518506 0.09008486 0.05012999 0.107704625 2.9993818e-05 0.00037153493 0.00032800814 0.072251074
0.076098144 0.06541447 0.035220552 0.04380189 0.06354552 0.09773886 0.039424628 0.0
0.00018382104 0.0006627823 0.09234408 0.15931155 0.01483284 0.15351039 0.014389119 0.023841294
0.13134915 0.17125331 0.121318564 0.111900955 0.012241923 0.058657482 0.048476223 0.0002958484
0.1522668 0.11362 0.027706932 0.06539792 0.00021718786 0.06222118 0.01265218 0.02514069
0.08044688 0.0558202 0.031973924 0.006221925 0.07515829 0.022635272 0.067898884 0.47538075
0.036723416 0.09720251 0.035491034 0.13039987 0.0004233195 0.0010432423 0.05293378 0.11183368
0.0389749 0.0077723768 0.14287297 0.13642249 0.0 0.00093184225 0.051300574 0.01851933
0.035960488 0.09437877 0.02339434 0.108322844 0.047128864 0.14039505 0.0126616685 0.08469513
0.027492054 0.02815717 0.071385056 0.051949948 0.07378993 8.749006e-05 0.074812174 0.00035249564
0.11067454 0.07495005 0.0331805 0.00067302625 0.0010462261 0.075169586 0.05526901 0.06456859
0.09634948 0.06439167 0.037399966 0.0 0.01655709 0.081079096 0.1258498 0.2662806
0.013997195 0.00018462549 0.00030864417 0.06530357 0.11018516 0.087432064 0.027515423 0.1015007
0.028865598 0.06943986 0.012331699 0.10528496 0.101474494 0.12662251 0.04272222 0.00068748125
0.017518431 0.00015174251 0.055169474 0.12704648 0.08641709 0.08386439 0.018680986 0.064990245
0.021418747 0.049634375 0.11301764 9.7460295e-05 0.040833764 0.026275137 0.019512815 0.06601147
0.00045552553 0.0770635 0.12002201 0.14869125 0.050616328 0.004565044 0.027800232 0.095996305
0.123433255 0.033698317 0.023796523 0.085307896 0.06689166 0.01355614 0.003411848 0.029738436
0.04962717 0.00029712028 0.044298887 0.037022747 0.00049009774 0.020358162 0.00928201 0.04382102
0.005679345 0.0 0.046440452 0.00039099026 0.018826004 0.00017043042 0.050918736 0.12249312
0.0008171987 0.0663926 6.47358e-05 0.07613809 0.075149916 0.03848278 0.09189531 0.053140715
0.038651872 0.14591339 0.03979602 0.057505377 0.09613911 0.00057077757 0.17850398 0.03319993
0.13749912 0.030338868 0.122263744 0.11342408 0.09843681 0.0015100976 0.085402675 0.12200467
00000000: 2b7e dc39 decb c83d 0b86 723c ef2d 023d
00000010: 65ed 3c3d 5acd 923d 8861 bd36 eb63 4d3d
00000020: e977 9e3d e488 bb3c e2d4 a13d 96ca 543e
00000030: 7930 1f3e a0ea 6b3a 2bc8 953d 39a3 0e3d
00000040: b480 903c b5bf 863c 13c4 f13b 7a2e 7c39
00000050: d3f2 7d3d 9b1e fd3d 7eb8 ec3c 0387 8f39
00000060: 9ef5 e63d 2fae 353d 87ee be3d 7d0e 273d
00000070: 9c32 003d f1c3 b63d a005 013e ca85 c63d
00000080: 9c76 173d 8996 113d 8e4c 3a3d 6c6b 863d
00000090: f84a 053a 2832 9e39 c883 e53c 2928 de3d
000000a0: 18df 333b c784 813d 4c02 9a3d b2d3 ff3c
000000b0: d53d 9b3d 5e2d 183e b9b3 df3d 84b7 b93d
000000c0: 3d07 253d 73ea 993d b8f8 e738 08a6 de3c
000000d0: b28d bb3d 7953 6f3d b29b e63c 0f39 903d
000000e0: 5718 043e 67e3 573c e32f fb3d e2aa db3d
000000f0: 984f 7a3d e7a4 803c 19ca a33c d2fa b13d
00000100: 4967 c03d 6caf 193d b7d2 b738 e064 213e
00000110: a10a 2b3c 9fe9 fa3d 04b2 ac3d 81c4 b237
00000120: a0fa 993d 697e b83d 1b55 4d3d 3e94 dc3d
00000130: 3c9b fb37 93ca c239 82f8 ab39 5ff8 933d
00000140: 58d9 9b3d 06f8 853d 6d43 103d 9c69 333d
00000150: 2724 823d 502b c83d b87b 213d 0000 0000
00000160: 16c0 4039 91be 2d3a e51e bd3d 9122 233e
00000170: 7105 733c d431 1d3e 57c0 6b3c d14e c33c
00000180: 6480 063e 075d 2f3e de75 f83d 542c e53d
00000190: 5992 483c d442 703d 018f 463d 1a1c 9b39
000001a0: d4eb 1b3e 9ab1 e83d a6f9 e23c 58ef 853d
000001b0: ecbc 6339 a3db 7e3d 174b 4f3c d9f3 cd3c
000001c0: 55c1 a43d b9a3 643d 17f7 023d 4ae1 cb3b
000001d0: 97ec 993d 9b6d b93c 920e 8b3d 1b65 f33e
000001e0: 4b6b 163d 1c12 c73d 0c5f 113d 8b87 053e
000001f0: fbf0 dd39 67bd 883a 17d1 583d 0e09 e53d
00000200: 25a4 1f3d 6caf fe3b 4b4d 123e 56b2 0b3e
00000210: 0000 0000 e046 743a 8d20 523d dab5 973c
00000220: 4e4b 133d a849 c13d 7da5 bf3c 5ed8 dd3d
00000230: 320a 413d b8c3 0f3e e372 4f3c a474 ad3d
00000240: 0437 e13c dea9 e63c 5432 923d 78c9 543d
00000250: 2d1f 973d de7a b738 2037 993d 2acf b839
00000260: 55a9 e23d 697f 993d 47e8 073d 076e 303a
00000270: 8621 893a 83f2 993d c261 623d 893c 843d
00000280: e052 c53d c8df 833d b530 193d 0000 0000
00000290: bca2 873c cc0c a63d c5de 003e ee55 883e
000002a0: 7e54 653c 0798 4139 85d1 a139 e1bd 853d
000002b0: c2a8 e13d 950f b33d 0668 e13c 99df cf3d
000002c0: 8c77 ec3c 7c36 8e3d e50a 4a3c a49f d73d
000002d0: dcd1 cf3d 55a9 013e 7ffd 2e3d 1638 343a
000002e0: d082 8f3c 121d 1f39 63f9 613d 7918 023e
000002f0: 71fb b03d 18c1 ab3d de08 993c 9b19 853d
00000300: 5e76 af3c 6a4d 4b3d cb75 e73d 9963 cc38
00000310: 4e41 273d f53e d73c 57d9 9f3c 0631 873d
00000320: 9ad3 ee39 78d3 9d3d 19ce f53d 8542 183e
00000330: 1153 4f3d 5d96 953b 50bd e33c b699 c43d
00000340: 93ca fc3d 3f07 0a3d edf0 c23c e8b5 ae3d
00000350: 7ffe 883d 921a 5e3c 5099 5f3b 059e f33c
00000360: dc45 4b3d cfc6 9b39 c072 353d 2aa5 173d
00000370: e779 003a 29c6 a63c 9213 183c ab7d 333d
00000380: cd19 ba3b 0000 0000 5838 3e3d d3fd cc39
00000390: fe38 9a3c 91b5 3239 2a90 503d acdd fa3d
000003a0: 4739 563a d8f8 873d c5c2 8738 49ee 9b3d
000003b0: 33e8 993d 1fa0 1d3d 9c33 bc3d 14aa 593d
000003c0: 6d51 1e3d 526a 153e 2701 233d c28a 6b3d
000003d0: 95e4 c43d 3ca0 153a bfc9 363e a6fc 073d
000003e0: 92cc 0c3e 3889 f83c 6a65 fa3d e24a e83d
000003f0: 3d99 c93d 78ee c53a 99e7 ae3d 96dd f93d
