src/loss/weights/rgb_watson_fft_trial0.pth (torch_old, 3771 bytes, 9 tensors)

w_tild f4 [3]
000000 38 b3 1d 3d 3b ef ea bd e1 96 f5 3c
       0.038500994 -0.11471411 0.029979171

to_YCbCr.transform f4 [3, 3]
000000 87 16 99 3e b1 bf 2c be 00 00 00 3f a2 45 16 3f
       0.299 -0.1687 0.5 0.587
000010 27 a0 a9 be d9 5f d6 be d5 78 e9 3d 00 00 00 3f
       -0.3313 -0.4187 0.114 0.5
000020 9d 80 a6 bd
       -0.0813

to_YCbCr.bias f4 [3]
000000 00 00 00 00 00 00 00 3f 00 00 00 3f
       0.0 0.5 0.5

ly.t_tild f4 [8, 5]
000000 03 81 bb be ae 6c c8 3f 2a e5 f1 3f b2 24 51 40
       -0.36621866 1.5658166 1.889806 3.2678647
000010 5b ed 7d bf 25 4c dd 3f dd bf 03 c0 03 16 16 c0
       -0.991903 1.7288862 -2.0585854 -2.3450935
000020 39 57 83 bf f7 c5 68 bf 47 5f 06 40 69 d8 1e c0
       -1.0260993 -0.9092707 2.0995653 -2.4819586
000030 7d 35 38 c0 a3 dc b4 bf dd 18 84 bf a6 b5 5e 40
       -2.8782647 -1.4129833 -1.0320088 3.479837
000040 bf 5a 7f bf 70 63 b2 bf db a6 61 3e a2 3c 34 3f
       -0.9974784 -1.3936596 0.22036307 0.7040502
000050 c3 5a 35 bf b3 bb 41 bf 94 65 61 bf 8d f7 63 3f
       -0.70841616 -0.7567703 -0.8804562 0.8904961
000060 f9 e0 c0 bf 2c ac 5e 40 c7 a5 82 bf 8e c5 ac bf
       -1.5068656 3.4792585 -1.0206841 -1.3497789
000070 29 1c 89 3e 43 5f 44 3f a1 0a 07 40 44 55 20 c0
       0.26779297 0.7670786 2.1100237 -2.5052042
000080 05 a7 39 c0 ca e0 af bf 0d 10 7d bf 22 92 de 3f
       -2.900819 -1.3740475 -0.98852617 1.7388346
000090 f3 c4 00 c0 7b 4f 19 c0 0a 1a 83 bf 64 5f 5e bf
       -2.0120208 -2.395476 -1.0242321 -0.86864305

ly.w_phase_tild f4 [8, 5]
000000 04 f6 e5 3e 46 5f c2 c0 8a f6 be c0 b3 09 b5 c0
       0.44914258 -6.07413 -5.967595 -5.657434
000010 12 65 b3 bf 7d 60 c1 c0 27 08 c7 c0 c7 a6 c6 c0
       -1.4015219 -6.0430284 -6.219745 -6.2078586
000020 a9 42 c0 c0 4a 12 b4 c0 21 78 ba c0 02 96 c4 c0
       -6.008137 -5.6272326 -5.827164 -6.1433115
000030 a0 ae bf c0 de 22 b9 c0 3a bd ae c0 c9 15 b2 c0
       -5.9900665 -5.7855062 -5.460599 -5.5651593
000040 f0 17 c2 c0 7b a1 ba c0 f7 43 ab c0 68 4f 98 c0
       -6.065422 -5.832212 -5.3520465 -4.759693
000050 7e 0b 83 bf 16 db b6 c0 ea 48 af c0 98 74 98 c0
       -1.0237882 -5.714244 -5.4776506 -4.7642326
000060 18 58 3b c0 89 fe b1 c0 5a 95 bf c0 da ae bb c0
       -2.9272518 -5.562321 -5.9869814 -5.865094
000070 70 1b ac c0 1d 2d 97 c0 68 2d ba c0 ed 17 c6 c0
       -5.3783493 -4.724257 -5.8180428 -6.1904206
000080 ea dd c2 c0 46 10 b9 c0 74 50 ad c0 c1 86 c1 c0
       -6.089589 -5.7832365 -5.416071 -6.0476995
000090 6c e8 c5 c0 b4 a1 c7 c0 00 43 c0 c0 f7 f3 b3 c0
       -6.184622 -6.238489 -6.0081787 -5.623531

lcb.t_tild f4 [8, 5]
000000 40 e4 30 c0 44 b3 bd 3e a2 98 80 3f cf df 9e 3f
       -2.7639313 0.3705083 1.004658 1.2412051
000010 b7 09 b8 bf 22 14 8c 3e 80 c2 b1 3e 3d d4 0c 3f
       -1.4377965 0.2735911 0.34718704 0.5501135
000020 a9 b8 1b 3f 2e 9b 46 3e 2b a9 8f 3f 6e 18 19 3f
       0.60828644 0.19395134 1.1223501 0.598029
000030 62 ce a8 3e 02 8b 03 3f ef 27 92 3e d9 1b b4 3f
       0.32969958 0.51383984 0.28546092 1.4070998
000040 2e d2 41 3f d9 53 11 3f d4 cb fe 3e ab 5b 8a 3d
       0.75711334 0.56768566 0.49764884 0.067557655
000050 f5 7f 9c bf f5 2f d1 3e 3b 63 c5 3e 03 16 89 3e
       -1.2226549 0.408569 0.3855227 0.26774606
000060 10 6c aa bf a4 e9 b4 3f aa c6 37 3f e4 2a 15 3f
       -1.3314228 1.4133801 0.7178751 0.5826857
000070 bf 0c e1 3e b1 2d 8e 3d ba 9b 91 3f 9f 65 1a 3f
       0.43955037 0.06942309 1.1375649 0.6031131
000080 0e 88 ab 3e ac 78 ff 3e 9f 55 9d 3e 84 ff 78 3e
       0.3350224 0.49896753 0.30729386 0.24316221
000090 c9 2d cc 3e 21 ce 0a 3f 4a 39 12 3f 08 5f 7e 3e
       0.3987868 0.5422078 0.57118666 0.24840939

lcb.w_phase_tild f4 [8, 5]
000000 07 ee e0 3e d8 a7 a1 c0 b7 9c aa c0 9d f6 8b c0
       0.439316 -5.0517387 -5.33163 -4.373854
000010 ac c2 f0 bf 7a c0 9e c0 b4 fc b9 c0 14 83 b5 c0
       -1.8809409 -4.9609957 -5.8120975 -5.6722507
000020 5f 7d 9e c0 9c 34 86 c0 2b 56 a4 c0 13 da b8 c0
       -4.952804 -4.193922 -5.1355186 -5.7766204
000030 07 36 a8 c0 aa 5a 8b c0 77 c1 6f c0 d9 64 8a c0
       -5.256595 -4.3548174 -3.7461832 -4.3248105
000040 6c ef a3 c0 90 34 8f c0 b5 c7 57 c0 00 d5 33 c0
       -5.1229763 -4.4751663 -3.3715641 -2.8098755
000050 02 4a be bf 7e d0 8e c0 52 63 7a c0 20 b3 33 c0
       -1.4866335 -4.4629507 -3.912312 -2.807808
000060 3c 57 05 c0 09 de 88 c0 29 0e a2 c0 79 01 8f c0
       -2.0834494 -4.277104 -5.0642285 -4.46893
000070 c2 f0 52 c0 2f 1e 33 c0 72 61 a5 c0 f0 a0 b9 c0
       -3.2959447 -2.7987173 -5.168145 -5.8008957
000080 0a d7 a9 c0 a4 0a 8a c0 59 cc 71 c0 5b 17 9f c0
       -5.3075 -4.313799 -3.7780974 -4.971601
000090 a4 02 ba c0 df 59 b8 c0 2f ad 9c c0 c6 1a 86 c0
       -5.8128223 -5.7609706 -4.8961406 -4.1907682

lcr.t_tild f4 [8, 5]
000000 e4 80 3b c0 83 69 4a 3e 37 fa 65 3f 4b dc 80 3f
       -2.9297419 0.19766812 0.8983492 1.0067228
000010 48 7c a5 bf 37 61 1c 3e d9 5c c0 3e 3e 82 13 3f
       -1.2928553 0.1527146 0.37570837 0.5762061
000020 16 52 14 3f f0 66 7e 3d 14 31 6b 3f e9 7e 2e 3f
       0.57937753 0.062109888 0.9187176 0.681624
000030 e7 8e 15 3f 4d d3 24 3f 89 0b dc 3e 1d 2d 92 3f
       0.58421177 0.6438492 0.4297755 1.1420017
000040 84 78 43 3f 4b f3 32 3f da be 06 3f e4 59 0e bd
       0.7635577 0.69902486 0.52634966 -0.034753695
000050 18 c1 de bf 2a 84 a5 3e d1 fd bf 3e 59 8d b0 3e
       -1.7402678 0.32327396 0.37498334 0.3448284
000060 4f 27 ad 3c 8e c2 90 3f 53 8f 3c 3f 9b 55 2c 3f
       0.021136908 1.1309373 0.73656195 0.67318124
000070 16 80 f8 3e c3 5d 24 bd 5c 85 6f 3f 6a 4e 2a 3f
       0.48535222 -0.04012848 0.93562865 0.665259
000080 cf 91 30 3f 44 68 25 3f 95 50 d9 3e 08 99 06 3e
       0.68972486 0.6461222 0.42444292 0.13144314
000090 d5 75 9a 3e 0b 05 15 3f 76 dc 18 3f 48 be 89 3d
       0.30168024 0.5821082 0.59711397 0.067257464

lcr.w_phase_tild f4 [8, 5]
000000 f4 76 e7 3e eb f2 a0 c0 48 cf a8 c0 22 b0 8e c0
       0.45207942 -5.029653 -5.275303 -4.4590006
000010 63 74 00 c0 73 e0 9e c0 25 47 b6 c0 30 da b5 c0
       -2.0071037 -4.9648986 -5.6961846 -5.682884
000020 1a 0b 9c c0 e6 0d 83 c0 68 7d ac c0 ab 02 bb c0
       -4.876355 -4.0954466 -5.3903084 -5.8440757
000030 44 0d ac c0 c2 50 8e c0 61 1a 77 c0 dd 7d 92 c0
       -5.3766193 -4.447358 -3.860985 -4.577864
000040 ae 10 a4 c0 8c 3f 92 c0 ed 50 5e c0 62 e0 36 c0
       -5.127036 -4.570257 -3.4736893 -2.8574452
000050 18 78 f6 bf 0e 31 8e c0 96 49 7d c0 13 52 3b c0
       -1.92554 -4.443488 -3.9576163 -2.9268844
000060 9f 29 11 c0 cd 77 91 c0 8a 43 a4 c0 a8 8f 93 c0
       -2.2681653 -4.545874 -5.1332445 -4.611286
000070 24 7b 5b c0 39 9c 36 c0 e9 06 ac c0 fc 15 ba c0
       -3.429391 -2.853285 -5.3758435 -5.8151836
000080 f8 72 ae c0 68 70 8c c0 d8 e3 76 c0 30 0c 9e c0
       -5.4515343 -4.3887215 -3.8576565 -4.9389877
000090 7a 05 b5 c0 85 d7 b6 c0 ab b9 9c c0 5f e7 83 c0
       -5.6569185 -5.7138085 -4.8976645 -4.1219935
