src/loss/weights/rgb_pnet_lin_squeeze_trial0.pth (torch_old, 10811 bytes, 7 tensors)

lin0.model.1.weight f4 [1, 64, 1, 1]
000000 60 3a ae 3d 00 00 00 00 00 00 00 00 00 00 00 00
       0.08507228 0.0 0.0 0.0
000010 00 00 00 00 00 00 00 00 00 00 00 00 eb 02 5f 3e
       0.0 0.0 0.0 0.21778457
000020 00 00 00 00 00 00 00 00 00 00 00 00 21 b5 91 3e
       0.0 0.0 0.0 0.28458503
000030 f1 21 8e 3e 00 00 00 00 00 00 00 00 00 00 00 00
       0.2776027 0.0 0.0 0.0
000040 bc 62 aa 3d 00 00 00 00 00 00 00 00 00 00 00 00
       0.08319613 0.0 0.0 0.0
000050 00 00 00 00 00 00 00 00 00 00 00 00 00 00 00 00
       0.0 0.0 0.0 0.0
000060 49 b9 b9 3d 00 00 00 00 06 56 b2 3e 00 00 00 00
       0.090685435 0.0 0.34831256 0.0
000070 00 00 00 00 00 00 00 00 4f 8d f9 36 00 00 00 00
       0.0 0.0 7.4372288e-06 0.0
000080 00 00 00 00 00 00 00 00 00 00 00 00 ec 7e 12 3f
       0.0 0.0 0.0 0.5722492
000090 00 00 00 00 4f bc e4 35 00 00 00 00 7d 8d 98 3d
       0.0 1.7042129e-06 0.0 0.07448862
0000a0 00 00 00 00 00 00 00 00 02 de f1 3e 00 00 00 00
       0.0 0.0 0.4723969 0.0
0000b0 6c a1 9d 3c 62 dd 09 37 12 64 44 3e 00 00 00 00
       0.019242011 8.217381e-06 0.19178799 0.0
0000c0 00 00 00 00 00 00 00 00 00 00 00 00 00 00 00 00
       0.0 0.0 0.0 0.0
0000d0 05 c6 d3 3e 00 00 00 00 00 00 00 00 b3 49 b3 3e
       0.41362014 0.0 0.0 0.35017166
0000e0 00 00 00 00 96 3b 73 3e 00 00 00 00 db 64 d5 3e
       0.0 0.23753199 0.0 0.4167851
0000f0 00 00 00 00 00 00 00 00 00 00 00 00 00 00 00 00
       0.0 0.0 0.0 0.0

lin1.model.1.weight f4 [1, 128, 1, 1]
000000 00 00 00 00 00 00 00 00 00 00 00 00 00 00 00 00
       0.0 0.0 0.0 0.0
000010 00 00 00 00 00 00 00 00 00 00 00 00 67 a5 a0 3e
       0.0 0.0 0.0 0.31376192
000020 00 00 00 00 09 cc fa 37 ff fb a4 38 00 00 00 00
       0.0 2.9897334e-05 7.867067e-05 0.0
000030 e5 70 38 38 c5 2a fc 36 00 00 00 00 00 00 00 00
       4.397416e-05 7.5151643e-06 0.0 0.0
000040 86 62 7e 3e 00 00 00 00 32 bf 7f 35 08 3f b8 36
       0.24842271 0.0 9.527313e-07 5.490965e-06
000050 00 00 00 00 30 53 8b 3e c2 e3 b2 3e d1 18 03 3e
       0.0 0.27211905 0.3493939 0.12802435
000060 00 00 00 00 d5 c0 d7 37 00 00 00 00 00 00 00 00
       0.0 2.5719792e-05 0.0 0.0
000070 00 00 00 00 00 00 00 00 00 00 00 00 24 bd c3 3d
       0.0 0.0 0.0 0.0955756
000080 00 00 00 00 00 00 00 00 00 00 00 00 00 00 00 00
       0.0 0.0 0.0 0.0
000090 aa c4 6e 38 00 00 00 00 00 00 00 00 bf c2 02 37
       5.692678e-05 0.0 0.0 7.793947e-06
0000a0 00 00 00 00 af 2b 0d 38 00 00 00 00 00 00 00 00
       0.0 3.3657703e-05 0.0 0.0
0000b0 70 c1 17 3e 00 00 00 00 00 00 00 00 00 00 00 00
       0.14819884 0.0 0.0 0.0
0000c0 00 00 00 00 00 00 00 00 00 00 00 00 00 00 00 00
       0.0 0.0 0.0 0.0
0000d0 00 00 00 00 24 f7 bc 37 00 00 00 00 00 00 00 00
       0.0 2.252643e-05 0.0 0.0
0000e0 ed d2 d9 3d 00 00 00 00 00 00 00 00 d7 c0 89 37
       0.10635934 0.0 0.0 1.642147e-05
0000f0 00 00 00 00 00 00 00 00 00 00 00 00 00 00 00 00
       0.0 0.0 0.0 0.0
000100 00 00 00 00 00 00 00 00 00 00 00 00 00 00 00 00
       0.0 0.0 0.0 0.0
000110 00 00 00 00 00 00 00 00 00 00 00 00 00 00 00 00
       0.0 0.0 0.0 0.0
000120 00 00 00 00 00 00 00 00 00 00 00 00 00 00 00 00
       0.0 0.0 0.0 0.0
000130 00 00 00 00 00 00 00 00 00 00 00 00 00 00 00 00
       0.0 0.0 0.0 0.0
000140 00 00 00 00 00 00 00 00 00 00 00 00 2a 05 fb 38
       0.0 0.0 0.0 0.000119695746
000150 00 00 00 00 00 00 00 00 00 00 00 00 00 00 00 00
       0.0 0.0 0.0 0.0
000160 00 00 00 00 00 00 00 00 00 00 00 00 00 00 00 00
       0.0 0.0 0.0 0.0
000170 00 00 00 00 00 00 00 00 00 00 00 00 00 00 00 00
       0.0 0.0 0.0 0.0
000180 00 00 00 00 00 00 00 00 00 00 00 00 00 00 00 00
       0.0 0.0 0.0 0.0
000190 00 00 00 00 00 00 00 00 00 00 00 00 00 00 00 00
       0.0 0.0 0.0 0.0
0001a0 00 00 00 00 03 0a b3 36 00 00 00 00 00 00 00 00
       0.0 5.335781e-06 0.0 0.0
0001b0 00 00 00 00 00 00 00 00 00 00 00 00 00 00 00 00
       0.0 0.0 0.0 0.0
0001c0 00 00 00 00 00 00 00 00 00 00 00 00 eb 93 05 38
       0.0 0.0 0.0 3.184743e-05
0001d0 00 00 00 00 60 da 32 38 00 00 00 00 00 00 00 00
       0.0 4.2641885e-05 0.0 0.0
0001e0 00 00 00 00 00 00 00 00 00 00 00 00 00 00 00 00
       0.0 0.0 0.0 0.0
0001f0 00 00 00 00 00 00 00 00 00 00 00 00 00 00 00 00
       0.0 0.0 0.0 0.0

lin2.model.1.weight f4 [1, 256, 1, 1]
000000 08 23 4f 3d 87 8b 15 3e 88 da 19 3f 00 00 00 00
       0.050570518 0.14604007 0.6009908 0.0
000010 08 6c 18 38 00 00 00 00 f0 7f 31 3e 00 00 00 00
       3.6340236e-05 0.0 0.1733396 0.0
000020 00 00 00 00 00 00 00 00 03 20 19 38 15 d7 01 38
       0.0 0.0 3.6507856e-05 3.0956307e-05
000030 21 96 d3 38 05 96 d2 37 2f eb 40 39 c4 6a c8 37
       0.00010089228 2.510381e-05 0.0001839816 2.3891575e-05
000040 f6 48 ec 37 9c b2 94 38 f8 3f 72 3d 00 00 00 00
       2.8167367e-05 7.0904585e-05 0.059143037 0.0
000050 1a 81 94 37 00 00 00 00 76 de de 37 0e 53 d1 37
       1.7703092e-05 0.0 2.6568054e-05 2.4953417e-05
000060 9f c7 a0 3e aa db 0b 36 de 52 83 3e 0c 75 b1 3e
       0.314023 2.0840475e-06 0.2564916 0.34659612
000070 00 00 00 00 0a f9 8a 38 00 00 00 00 00 00 00 00
       0.0 6.62674e-05 0.0 0.0
000080 59 15 33 37 96 8a c8 36 e2 c9 36 38 28 8a c5 36
       1.0674202e-05 5.976598e-06 4.35802e-05 5.887141e-06
000090 4a a9 19 39 31 b3 3a 38 18 44 2d 37 08 05 50 39
       0.00014654282 4.451274e-05 1.0327458e-05 0.000198383
0000a0 bf 44 85 38 77 b9 ed 3d 9e fa 01 38 e3 da 32 38
       6.354739e-05 0.1160764 3.0989402e-05 4.264236e-05
0000b0 00 00 00 00 ed 94 75 39 00 00 00 00 a4 bb cc 3d
       0.0 0.000234205 0.0 0.09996727
0000c0 00 00 00 00 d9 29 9a 3e 00 00 00 00 02 7e 79 38
       0.0 0.30110052 0.0 5.948358e-05
0000d0 b7 80 d3 37 8a 87 e8 3e ad 4b 74 3e 40 98 04 39
       2.5213098e-05 0.45415908 0.23856993 0.00012645219
0000e0 00 00 00 00 ab 22 77 3d fe 9d 2c 36 00 00 00 00
       0.0 0.060335796 2.572196e-06 0.0
0000f0 88 f8 26 37 00 00 00 00 00 00 00 00 00 00 00 00
       9.952237e-06 0.0 0.0 0.0
000100 71 98 c9 37 32 3f 2f 37 3d 2e a5 38 00 00 00 00
       2.4032053e-05 1.0445527e-05 7.876426e-05 0.0
000110 8b 82 f6 37 00 00 00 00 00 00 00 00 6c 4c 15 38
       2.9386274e-05 0.0 0.0 3.559554e-05
000120 7d d9 54 36 00 00 00 00 d7 9e fc 38 10 39 57 38
       3.1717057e-06 0.0 0.000120458826 5.1313138e-05
000130 d3 ee 23 3d 00 00 00 00 ec 6f d7 38 29 e6 04 38
       0.040022682 0.0 0.00010272846 3.1685606e-05
000140 94 4c 31 3e 00 00 00 00 f8 64 a8 3e 00 00 00 00
       0.17314368 0.0 0.32889533 0.0
000150 ea cc 0a 37 10 33 e7 3d 91 bb 11 39 49 19 b3 3e
       8.273151e-06 0.11289036 0.00013898152 0.3498023
000160 00 00 00 00 5f ed 21 38 20 1f 60 3d 57 98 ac 38
       0.0 3.860646e-05 0.054717183 8.2299746e-05
000170 00 00 00 00 8c a9 0c 39 3d 6e 84 38 6f b8 7c 35
       0.0 0.00013414602 6.314784e-05 9.41457e-07
000180 d2 3e 2d 39 77 a9 66 38 00 00 00 00 3d 35 ff 37
       0.00016521968 5.49941e-05 0.0 3.042316e-05
000190 a0 d6 42 37 18 d6 6a 3e 79 90 fd 36 2e d5 e0 3e
       1.1613272e-05 0.22933233 7.5568064e-06 0.43912643
0001a0 00 00 00 00 00 00 00 00 28 3a d8 3e 00 00 00 00
       0.0 0.0 0.4223187 0.0
0001b0 7a 94 ae 37 00 00 00 00 ee ce 7d 37 00 00 00 00
       2.0811556e-05 0.0 1.5128155e-05 0.0
0001c0 00 00 00 00 ce 27 99 3e ee d7 fe 3d ae fb 55 38
       0.0 0.2991318 0.12443529 5.1017552e-05
0001d0 00 00 00 00 17 42 3b 38 b5 79 2c 39 2c c7 1c 3d
       0.0 4.4645825e-05 0.00016448538 0.038275883
0001e0 00 00 00 00 00 00 00 00 b5 a1 cd 38 75 b5 16 3e
       0.0 0.0 9.805282e-05 0.14717658
0001f0 88 cb 0d 37 67 74 22 3f 1c 03 de 3d 00 00 00 00
       8.451643e-06 0.63458866 0.10840437 0.0
000200 00 00 00 00 d0 7b 1e 3e d2 7f 82 37 8a f4 f9 37
       0.0 0.15476918 1.5556729e-05 2.9796985e-05
000210 5d 24 b4 37 00 00 00 00 00 00 00 00 00 00 00 00
       2.1474605e-05 0.0 0.0 0.0
000220 b2 c8 21 33 00 00 00 00 eb 2f b3 37 67 ca cb 37
       3.7668265e-08 0.0 2.1360776e-05 2.4293737e-05
000230 f7 24 a9 38 6c 51 2b 38 00 00 00 00 1d 6a b4 39
       8.065433e-05 4.0845407e-05 0.0 0.00034411336
000240 00 00 00 00 00 00 00 00 00 00 00 00 00 00 00 00
       0.0 0.0 0.0 0.0
000250 fb 15 4c 35 00 00 00 00 56 69 8a 36 00 00 00 00
       7.602791e-07 0.0 4.124983e-06 0.0
000260 60 18 0e 38 00 00 00 00 00 00 00 00 00 00 00 00
       3.387814e-05 0.0 0.0 0.0
000270 00 00 00 00 00 00 00 00 13 56 45 39 00 00 00 00
       0.0 0.0 0.00018819449 0.0
000280 b6 df e6 37 00 00 00 00 00 00 00 00 d4 b2 ab 3d
       2.752231e-05 0.0 0.0 0.08383718
000290 1d 0a 33 38 85 4c 61 3f 00 00 00 00 a6 9e b5 38
       4.2686344e-05 0.88007385 0.0 8.660303e-05
0002a0 00 00 00 00 f2 05 77 34 00 00 00 00 00 00 00 00
       0.0 2.300583e-07 0.0 0.0
0002b0 14 56 66 38 b8 0f 29 38 05 38 02 38 00 00 00 00
       5.491644e-05 4.030738e-05 3.1046588e-05 0.0
0002c0 00 00 00 00 45 bc cc 35 5c b5 89 3d 68 2d f5 37
       0.0 1.5253978e-06 0.06724045 2.922742e-05
0002d0 00 00 00 00 00 00 00 00 47 24 0b 38 1e eb 87 37
       0.0 0.0 3.317397e-05 1.6202739e-05
0002e0 00 00 00 00 00 00 00 00 00 00 00 00 00 00 00 00
       0.0 0.0 0.0 0.0
0002f0 49 a9 cb 3e 91 cd 80 37 8b 21 a1 37 cd 46 24 38
       0.39777592 1.5354513e-05 1.9208315e-05 3.9166585e-05
000300 00 00 00 00 00 00 00 00 4d 0a aa 38 00 76 39 37
       0.0 0.0 8.10815e-05 1.1054333e-05
000310 00 00 00 00 00 00 00 00 30 d5 1f 38 00 00 00 00
       0.0 0.0 3.81071e-05 0.0
000320 00 00 00 00 00 00 00 00 a9 a7 4c 38 da 84 cc 39
       0.0 0.0 4.8793536e-05 0.00039008894
000330 00 00 00 00 00 00 00 00 44 e6 38 38 00 00 00 00
       0.0 0.0 4.408347e-05 0.0
000340 00 00 00 00 00 00 00 00 00 00 00 00 00 00 00 00
       0.0 0.0 0.0 0.0
000350 00 00 00 00 00 00 00 00 b0 7e 83 38 d2 9d 8c 39
       0.0 0.0 6.270164e-05 0.00026820466
000360 00 00 00 00 00 00 00 00 00 00 00 00 00 00 00 00
       0.0 0.0 0.0 0.0
000370 00 00 00 00 53 41 60 38 00 00 00 00 00 00 00 00
       0.0 5.34666e-05 0.0 0.0
000380 a5 a5 05 3e 00 00 00 00 00 00 00 00 00 00 00 00
       0.1305147 0.0 0.0 0.0
000390 d7 ad 89 36 3c 5e c8 3e 00 00 00 00 00 00 00 00
       4.103156e-06 0.39134395 0.0 0.0
0003a0 00 00 00 00 00 00 00 00 c0 5b a1 3e 00 00 00 00
       0.0 0.0 0.31515312 0.0
0003b0 8a db 2a 38 00 00 00 00 dd 32 4c 37 00 00 00 00
       4.073562e-05 0.0 1.217119e-05 0.0
0003c0 00 00 00 00 7c 70 01 38 ff 7d e3 33 00 00 00 00
       0.0 3.0860756e-05 1.059343e-07 0.0
0003d0 ac f0 d1 36 d4 aa b5 38 00 00 00 00 78 3d 5b 35
       6.2567033e-06 8.662572e-05 0.0 8.1673306e-07
0003e0 00 00 00 00 cc e3 15 3d 00 00 00 00 00 00 00 00
       0.0 0.036594197 0.0 0.0
0003f0 00 00 00 00 cf 58 8f 38 00 00 00 00 c8 59 cc 36
       0.0 6.835313e-05 0.0 6.0901257e-06

lin3.model.1.weight f4 [1, 384, 1, 1]
000000 05 a0 97 3e 4b 87 a0 3d 51 9b 05 3e 00 00 00 00
       0.29614273 0.07838305 0.1304753 0.0
000010 ad e9 93 38 00 f8 05 3f 21 12 21 38 a0 95 c7 3e
       7.053032e-05 0.5233154 3.8402275e-05 0.38981342
000020 b3 66 f5 3e 25 8e 84 3d 41 72 ce 38 70 7c d5 38
       0.47929916 0.064724244 9.844127e-05 0.0001017981
000030 5e 06 ad 3e 40 07 b1 3e 58 27 db 3c 00 00 00 00
       0.3379392 0.34575844 0.026752159 0.0
000040 c9 a1 5f 3e 6d 1e 0c 3e 00 00 00 00 4f 2e 0b 3e
       0.2183906 0.13683482 0.0 0.13591884
000050 ea be bd 3e 5d 6b 5b 38 8f c9 d9 3d 73 3e 9e 38
       0.37059718 5.231366e-05 0.106341474 7.545659e-05
000060 a3 a6 03 38 7f 3b 8e 3e 5e 09 bd 39 88 45 6f 3e
       3.1388026e-05 0.27779767 0.00036055868 0.23366368
000070 1c 59 6d 38 fe bf c2 3c 9e ef c2 38 c3 b2 b9 3d
       5.6588193e-05 0.02377319 9.295273e-05 0.09067299
000080 3e 30 28 37 1d be 00 39 0e 88 3f 3d 6a dd 18 3e
       1.0024813e-05 0.00012277854 0.04676061 0.14928213
000090 7e 49 ab 39 a9 dd 63 38 db 60 6b 3d 2f 43 50 39
       0.00032670418 5.4327455e-05 0.057465415 0.00019861454
0000a0 b4 20 c2 3e ca ac 82 3e c2 b9 36 3e 2a 87 72 37
       0.37915576 0.25522453 0.17844298 1.4455794e-05
0000b0 93 45 db 38 78 6a 8f 38 77 be 4d 3e 04 c6 30 3e
       0.00010455693 6.838603e-05 0.20092188 0.17263037
0000c0 e8 0f 0b 3e 15 fc 87 3e 05 9d 0e 39 dc 7c 6d 3e
       0.13580287 0.2655951 0.0001360067 0.23192161
0000d0 98 e2 a1 38 bf 8d 6f 38 fa 9c c1 3e d5 9c 9f 3e
       7.7192846e-05 5.711405e-05 0.37815076 0.3117434
0000e0 04 51 5e 38 2d 07 db 3e d4 e9 fe 3d a9 3b 83 3e
       5.3004376e-05 0.42778912 0.12446943 0.25631455
0000f0 97 0f d1 3e 00 00 00 00 87 35 ff 3e 34 27 9c 3d
       0.40832207 0.0 0.49845526 0.07624665
000100 d4 a1 4a 3d 62 8d 31 3e 96 f6 05 39 54 89 a2 3d
       0.049470738 0.1733909 0.00012775729 0.079363495
000110 b6 35 be 3e e5 14 c5 3d 52 6c f2 3c 3f 21 9c 3e
       0.37150353 0.09623126 0.029592667 0.30494115
000120 81 6a e1 3d 6f f6 7d 39 dc 5f 2d 3e f5 6f 76 38
       0.11006642 0.00024219764 0.16931099 5.875524e-05
000130 da d4 84 3e 0e 18 85 39 9b a8 33 3e 06 1f 37 3e
       0.25943643 0.0002538566 0.17544787 0.17882928
000140 42 d9 1a 38 a7 1e 86 38 de 8d be 39 51 d7 73 38
       3.69188e-05 6.3953274e-05 0.00036345323 5.8136244e-05
000150 cc 02 a6 38 10 aa 35 3d f7 dd 66 3e c9 07 87 3e
       7.916018e-05 0.044351637 0.2254561 0.26373127
000160 e9 f8 3c 38 e7 eb 2f 39 cc 0e 2e 36 f5 0f 06 39
       4.505451e-05 0.00016777181 2.5936633e-06 0.0001278518
000170 00 00 00 00 3d cc 11 3d e7 14 3b 3e ad d2 43 38
       0.0 0.035595167 0.18269692 4.668783e-05
000180 2b 64 d9 3d f5 7a 91 3e 9d 47 a1 3e bc a8 d3 3d
       0.10614809 0.2841412 0.3149995 0.10334918
000190 d1 9a 3b 3e 72 b8 14 37 59 2e 33 3e ce 1a d7 3d
       0.18320777 8.864432e-06 0.17498149 0.105031595
0001a0 a8 cd c9 3e e2 d7 ca 33 4a ee 18 3f a8 79 f8 3d
       0.39414716 9.445627e-08 0.597386 0.12132579
0001b0 f1 b0 47 38 13 9d 62 3e c0 97 dd 3c 8e 24 02 3f
       4.7610087e-05 0.22130232 0.0270499 0.5083703
0001c0 12 ae 2a 3e 3e 76 9a 3e 00 00 00 00 4d f7 05 39
       0.16667965 0.30168337 0.0 0.00012775995
0001d0 c2 4b 80 3e 75 fb aa 3d 78 e0 7a 3d d5 7f c0 3e
       0.250578 0.08348743 0.061249226 0.37597528
0001e0 e6 02 c7 3c 86 c9 d8 37 5f 2e a5 3c 46 8f f0 3e
       0.024293374 2.5843048e-05 0.020163713 0.4698431
0001f0 28 a6 2d 3e 41 70 7a 3c 5e cd 88 3e 8e 7f 0a 3f
       0.16957915 0.0152855525 0.26719183 0.54100883
000200 09 a9 10 38 7f 8a a4 3d 7a f1 39 3d 5c 43 44 3d
       3.44897e-05 0.080342285 0.045396306 0.0479158
000210 da 51 4a 37 80 18 95 37 f3 22 ef 3d 00 00 00 00
       1.2059196e-05 1.7773593e-05 0.11676588 0.0
000220 00 00 00 00 00 00 00 00 90 e5 8d 38 7a 32 ec 38
       0.0 0.0 6.766163e-05 0.00011262759
000230 28 6d a8 3b a6 c5 8c 3e 39 ae 2c 39 44 ba a9 3d
       0.0051399656 0.27494544 0.00016468101 0.082874805
000240 2c d1 8e 3d 00 00 00 00 4e 97 b6 39 a4 bd 33 3e
       0.0697349 0.0 0.00034826476 0.17552811
000250 62 47 a2 37 23 7e 7f 3d d1 73 5c 39 73 21 c2 3e
       1.9345145e-05 0.062376153 0.0002102398 0.37916145
000260 81 ee 88 38 d6 f2 48 3e 00 00 00 00 4e 92 dd 3d
       6.52941e-05 0.19623885 0.0 0.10818921
000270 b8 23 c1 3e a6 84 34 3e 20 72 71 3e 7a d5 d6 39
       0.37722564 0.17628726 0.23578691 0.00040976313
000280 d8 24 eb 3e 39 90 4c 3d cc e3 66 38 17 f5 b0 38
       0.45926547 0.04994223 5.5048426e-05 8.4379855e-05
000290 a2 e2 83 38 ab de b8 39 32 87 b4 38 82 f6 10 3f
       6.2887804e-05 0.00035261115 8.608251e-05 0.5662614
0002a0 c1 aa 80 3e 8a 99 24 3f a6 79 87 3b 3b 1c 0c 3f
       0.25130275 0.6429678 0.0041343747 0.54730576
0002b0 b9 ea 90 3e 4c 32 9b 38 5a 45 1a 3d 82 ed 08 3a
       0.2830408 7.4003445e-05 0.037663795 0.00052233797
0002c0 65 b3 ce 3e 3c b0 98 38 8f 62 d1 3d b0 e5 99 3d
       0.40371242 7.280751e-05 0.10223877 0.075145125
0002d0 f1 4c ab 39 94 a1 b3 38 18 13 2d 39 ce 40 de 3e
       0.00032672987 8.5654814e-05 0.00016505679 0.43408817
0002e0 61 e2 7d 3d 00 00 00 00 1f c9 c1 3e 59 21 8f 39
       0.06198347 0.0 0.37848756 0.0002729993
0002f0 2a 95 a9 3d aa 85 a4 3d 46 a2 0b 3d c1 74 2a 3e
       0.08280404 0.08033307 0.034090303 0.166461
000300 00 00 00 00 67 f1 92 3e 95 f4 9b 3d 41 82 81 3e
       0.0 0.286998 0.0761501 0.25294688
000310 a3 30 e0 3d b8 47 e3 3d d5 ac 53 39 9a d6 56 37
       0.10946777 0.11097664 0.00020186913 1.280536e-05
000320 00 00 00 00 31 83 a9 39 28 4c ae 37 7a 75 d3 3d
       0.0 0.00032331937 2.077788e-05 0.10325141
000330 7d bd 4f 3e df b2 ec 3d b0 6c 42 3e 7f 23 c6 38
       0.20287128 0.115575545 0.18986773 9.4479874e-05
000340 1e 9e d8 3c 06 93 ed 37 11 54 06 39 bf 20 5e 3e
       0.026442584 2.8321065e-05 0.00012810553 0.21692179
000350 74 01 56 36 d3 33 c7 3c 45 56 30 3e 5e 6e 11 3e
       3.188933e-06 0.024316704 0.17220409 0.14202258
000360 dc f3 b2 36 00 00 00 00 85 2f aa 37 42 99 e3 38
       5.3332024e-06 0.0 2.0287707e-05 0.0001085275
000370 bf 1c ea 3c 72 71 51 39 a4 fa b3 38 c0 0c bf 3e
       0.02857816 0.00019974055 8.5820706e-05 0.37314415
000380 66 b4 84 3d c8 30 8c 38 4d 70 8b 39 52 59 84 38
       0.06479721 6.6848064e-05 0.00026595817 6.310888e-05
000390 42 41 db 3d ba 58 55 3e b3 0e a5 3a 1e f3 a3 3d
       0.10705806 0.20834628 0.0012592882 0.08005355
0003a0 39 0e be 39 33 1c 95 3e fc 86 08 3d 21 71 58 37
       0.0003625022 0.29123077 0.033331856 1.2900943e-05
0003b0 61 0d 8d 38 78 77 38 3e c9 f4 ac 3d b4 2e ed 36
       6.725896e-05 0.18014324 0.084451266 7.0685874e-06
0003c0 53 7a 22 39 b8 fb 82 3e 89 76 21 3d cf 05 0f 39
       0.00015495093 0.2558267 0.039419685 0.00013639707
0003d0 29 62 43 3e a4 34 10 3d 5e d0 b4 39 00 00 00 00
       0.19080414 0.035206452 0.0003448752 0.0
0003e0 8e 5d 4f 3d 2f a8 8d 39 af 70 59 37 41 55 1d 39
       0.05062633 0.00027018922 1.2960444e-05 0.00015004446
0003f0 cc 30 5b 3c 00 00 00 00 70 c7 fb 37 5a d2 cc 37
       0.013378333 0.0 3.0014402e-05 2.4416648e-05

lin4.model.1.weight f4 [1, 384, 1, 1]
000000 75 5a 9d 3e 15 7b 05 38 d2 03 9e 38 be 72 63 36
       0.30733076 3.18243e-05 7.534739e-05 3.3892425e-06
000010 a6 d6 84 3e 68 35 a4 3a dc 50 3b 3e bc d0 5b 38
       0.25945014 0.0012528123 0.18292564 5.2408068e-05
000020 4d 5d 4a 38 01 7b 75 37 73 64 7d 39 00 00 00 00
       4.8247446e-05 1.4631777e-05 0.0002416538 0.0
000030 74 d6 44 3e 00 00 00 00 58 19 9d 38 ec 63 f3 3d
       0.19222432 0.0 7.491064e-05 0.11884293
000040 e0 3c 80 38 25 86 b4 3e db 0b 1b 3d 48 71 39 38
       6.1148545e-05 0.35258594 0.037853103 4.421294e-05
000050 2d 35 24 3e ff f0 2e 3e 00 00 00 00 9b 45 f7 38
       0.1603591 0.1708412 0.0 0.00011790843
000060 5e 7a 54 38 00 00 00 00 cf 25 94 37 44 b0 fe 37
       5.0658702e-05 0.0 1.766058e-05 3.036124e-05
000070 ac a6 9e 39 53 63 f7 38 c9 ef 80 3d ee 1c 01 3e
       0.0003026029 0.000117963784 0.062957354 0.12608692
000080 d2 d1 a2 3d 4f 22 c7 3d 42 60 04 38 66 6a 65 3e
       0.07950176 0.09723341 3.15609e-05 0.22403869
000090 a7 4b e2 3d 4c 44 06 3e 04 57 05 38 9e 84 54 3e
       0.11049586 0.1311199 3.179071e-05 0.20753714
0000a0 f3 8d 9e 3d 75 0a 3d 3e 00 00 00 00 23 7e 85 37
       0.077419184 0.1846102 0.0 1.5913572e-05
0000b0 76 9c 00 3f 9e f4 ca 39 72 d2 57 3e 1d 6b 8c 3e
       0.5023874 0.00038710696 0.21076372 0.2742547
0000c0 7d b3 1a 39 38 49 11 39 5f 2e 8a 3e 6d 77 13 3c
       0.00014753449 0.00013855554 0.26988503 0.009000641
0000d0 29 cc da 3e 7a 8d 86 3d b2 44 f7 38 04 bf 58 39
       0.42733887 0.06569953 0.00011790673 0.00020670524
0000e0 3a 93 49 3e 00 00 00 00 20 1f 67 3b 9e fd de 38
       0.19685069 0.0 0.0035266355 0.00010633025
0000f0 98 5c 85 3e 83 f9 2b 39 2a ba 77 38 11 89 32 3e
       0.26047206 0.00016400781 5.9062768e-05 0.17435099
000100 1b 8e 34 38 9e 1b 5f 37 64 5e 9e 38 00 00 00 00
       4.304769e-05 1.3298266e-05 7.551609e-05 0.0
000110 12 b0 49 3e 2e be da 37 9e 0e f1 3d 0d 35 68 36
       0.19696072 2.6076184e-05 0.11770366 3.4601574e-06
000120 a2 6d 3d 3e 7b fb a2 38 f7 9d 5a 3e 34 db eb 3d
       0.18498853 7.771604e-05 0.21349321 0.11516419
000130 e8 a3 20 39 c0 5c fa 38 dc 8a a1 38 9f 08 16 3e
       0.00015319849 0.00011938205 7.702943e-05 0.14651726
000140 80 f0 14 39 07 db c5 3d 9d 66 9a 39 dd 30 00 3e
       0.00014203973 0.09660917 0.00029449622 0.1251864
000150 ed 27 49 3e 2c c4 3f 38 9b 5c 85 3d 97 f5 58 39
       0.19644137 4.5720648e-05 0.06511804 0.00020690855
000160 00 00 00 00 07 86 60 3d ca 37 09 3e 7d 19 17 39
       0.0 0.05481532 0.13400188 0.00014409977
000170 c0 2a 49 39 61 96 6b 37 6b b7 8c 3d 29 9f 67 38
       0.0001918478 1.4042104e-05 0.06870922 5.522292e-05
000180 1f 7b 2a 3d 2b e0 81 3e c0 54 8a 3e ae 31 03 3e
       0.041621324 0.2536634 0.27017784 0.1281192
000190 a6 b8 a3 39 01 c3 d3 3c 60 3d eb 3e e9 39 5f 38
       0.00031227357 0.025849821 0.45945263 5.3221276e-05
0001a0 49 63 49 3d 00 00 00 00 f3 67 b4 3e bd 3e 6f 3d
       0.04916695 0.0 0.35235557 0.05840944
0001b0 44 83 91 3e 43 60 f7 37 54 1a 37 3d f4 7e a2 39
       0.2842046 2.948952e-05 0.044702843 0.00030993635
0001c0 b0 4f 31 3e c0 22 90 3e 8c cb 02 3c fd c0 84 3c
       0.17315555 0.28151512 0.0079831 0.016205305
0001d0 cf 12 91 38 00 00 00 00 14 3b e1 3d 8e 49 43 3e
       6.917642e-05 0.0 0.109975964 0.19071028
0001e0 45 49 5d 39 87 0f 8f 3d a0 3f c6 38 bb 4d bd 3d
       0.00021103497 0.069853835 9.453227e-05 0.092433415
0001f0 d8 87 b7 3d ba 25 1e 3e 2f 5d 59 39 86 23 cb 3d
       0.08961457 0.15444079 0.00020729446 0.09918885
000200 18 8d 3a 38 ed 17 bd 3d 4d c1 0a 3e 1e 17 e8 3e
       4.447726e-05 0.09233079 0.13550301 0.45330137
000210 40 af 7f 38 52 2b 06 38 0c b1 e7 3d 45 46 bf 33
       6.0959952e-05 3.1988435e-05 0.11313066 8.9069125e-08
000220 b2 2e 34 38 be 37 53 3d 00 00 00 00 75 81 0b 3e
       4.2958833e-05 0.05156683 0.0 0.13623603
000230 17 93 df 38 16 ed b7 3d 07 30 d8 3d 87 64 67 3e
       0.00010660866 0.089807674 0.105560355 0.22596942
000240 90 da 6a 3e b0 c7 ae 3d a2 46 0e 3e 23 90 b6 37
       0.22934937 0.08534181 0.13894132 2.176321e-05
000250 45 b9 ce 3d c9 08 0c 3e 23 3e 69 38 00 00 00 00
       0.10093931 0.13675226 5.56094e-05 0.0
000260 99 37 ab 3d 18 f8 1c 3e 4f 78 d6 3e 1b 92 d4 38
       0.08360214 0.15329015 0.41888663 0.00010136162
000270 66 a6 20 3e 69 07 53 39 d6 3d b8 3c 78 88 ec 38
       0.15688476 0.00020125289 0.022490423 0.00011278776
000280 d4 7f e4 3e ba 5e 82 3e d9 29 0f 3d 81 0b 2e 3e
       0.44628775 0.25462896 0.03495202 0.16996576
000290 f2 2f ae 37 06 aa a7 3d 00 00 00 00 16 8d 61 34
       2.0764743e-05 0.08186726 0.0 2.1006085e-07
0002a0 4b 3c ae 3e 0a bb c6 3d 3e 23 3c 3e c9 cc 6a 38
       0.34030375 0.097036436 0.18372819 5.598067e-05
0002b0 45 8e e3 38 00 00 00 00 6e 6d 4f 36 c3 85 5c 3e
       0.00010850703 0.0 3.09091e-06 0.21535401
0002c0 31 d4 3a 3e 83 5e 16 3e 0e 52 eb 36 93 27 6c 38
       0.18245007 0.14684491 7.013098e-06 5.630364e-05
0002d0 1d 2d 47 3e 84 95 65 39 04 45 c3 3e bc 20 17 3e
       0.19450803 0.00021894841 0.38138592 0.14758581
0002e0 95 08 7e 38 01 62 57 3e 65 0c 94 3e ae 7a a3 37
       6.056631e-05 0.2103348 0.28915706 1.9488241e-05
0002f0 71 91 98 38 8a a3 a7 38 db db 5d 3e 2d 11 b4 3e
       7.2750154e-05 7.993642e-05 0.216659 0.35169354
000300 f0 33 1d 39 99 eb b5 38 04 f6 3b 3e dc a7 0d 39
       0.00014992035 8.674636e-05 0.18355566 0.0001350934
000310 b7 b7 1b 38 b9 e5 1a 39 0c 0f 0b 38 da 8a c6 38
       3.7125978e-05 0.00014772163 3.3154196e-05 9.467239e-05
000320 b4 e1 cd 38 6f 2f 09 39 98 e8 2e 39 df d9 16 3e
       9.817202e-05 0.00013083009 0.00016680581 0.14731549
000330 00 00 00 00 00 00 00 00 fe cd 1a 39 2a ea bb 3e
       0.0 0.0 0.00014763323 0.3670209
000340 52 39 1b 3e 2e 60 94 3e 00 00 00 00 4b 4b 07 3d
       0.15158585 0.2897963 0.0 0.03303079
000350 a6 06 af 3d e1 5b 5c 3d 96 1c 89 35 1a 20 a7 38
       0.0854619 0.05379856 1.0215615e-06 7.96916e-05
000360 30 89 06 3a a5 b4 dd 38 82 80 5e 38 00 00 00 00
       0.0005132137 0.00010571749 5.3048607e-05 0.0
000370 34 62 23 36 d7 81 54 39 15 d0 b3 38 6f 82 0b 3b
       2.4346054e-06 0.00020266265 8.5741434e-05 0.0021287461
000380 d3 96 d9 38 20 f4 86 38 26 ae 1e 39 76 b0 21 39
       0.000103754595 6.43509e-05 0.0001513293 0.00015419893
000390 ea 5c 04 37 f2 08 be 38 57 9a 1b 3d 33 15 87 3b
       7.889446e-06 9.061572e-05 0.037988987 0.0041224
0003a0 62 d4 9c 36 64 15 36 3d 00 00 00 00 4a ed ae 37
       4.673887e-06 0.044453993 0.0 2.0852913e-05
0003b0 24 c4 37 3d 00 00 00 00 b1 87 a9 39 28 f9 61 38
       0.04486479 0.0 0.0003233529 5.3876225e-05
0003c0 63 ff ef 38 03 97 08 39 84 68 8b 3e 4f 64 33 39
       0.000114439776 0.00013026227 0.27228177 0.00017108138
0003d0 5a d8 a0 36 8e bd 17 3e 86 54 c3 38 82 60 76 39
       4.793558e-06 0.14818403 9.314068e-05 0.0002349634
0003e0 5e 47 04 3e 3d 2b 16 3f 32 1c 9b 36 1a d0 92 38
       0.1291785 0.58659726 4.6226423e-06 7.0005844e-05
0003f0 d4 59 87 3c 1e 96 c2 37 bd 58 dc 38 5b a0 d3 3d
       0.016522326 2.3196506e-05 0.00010506946 0.1033332

lin5.model.1.weight f4 [1, 512, 1, 1]
000000 50 66 c5 38 67 a8 c4 3d 1d a8 f0 38 01 de 8b 3c
       9.412749e-05 0.09602433 0.00011475405 0.017073633
000010 80 12 ec 3c 33 e7 05 39 00 00 00 00 64 f6 26 37
       0.028817415 0.00012769997 0.0 9.951738e-06
000020 a9 1d 12 3e 88 ca 1d 38 76 ce 20 38 73 59 aa 38
       0.14269127 3.762034e-05 3.8339254e-05 8.122893e-05
000030 01 7c 1e 38 58 41 d9 3d 4a bb 50 38 00 00 00 00
       3.7785623e-05 0.106081665 4.976549e-05 0.0
000040 7c 8b 09 37 f7 51 0a 37 50 00 ee 3d 00 00 00 00
       8.198313e-06 8.244525e-06 0.11621153 0.0
000050 5c e3 bd 38 86 4d 48 39 00 00 00 00 e5 7c a9 3d
       9.054571e-05 0.00019102366 0.0 0.08275775
000060 94 f3 0a 3e ea 85 00 36 ac d8 8c 3d 11 10 1d 3e
       0.1356948 1.9151435e-06 0.068772644 0.1533816
000070 02 b9 a1 38 84 f9 b0 3b 09 18 66 3c b9 c1 8b 3d
       7.711539e-05 0.0054008383 0.014043816 0.06824059
000080 77 4d 59 3b d9 c1 17 3e 90 1f 00 3e 2f 48 a0 38
       0.0033157745 0.14820041 0.1251204 7.64284e-05
000090 db 31 fd 38 00 00 00 00 44 69 6d 3a 00 00 00 00
       0.000120732664 0.0 0.00090565183 0.0
0000a0 12 a6 84 39 c5 fc a8 37 d0 1e 72 37 99 58 55 3d
       0.00025300734 2.0144866e-05 1.4431498e-05 0.052086446
0000b0 82 d4 d9 3d 81 c8 51 3e 0a 2e 7b 38 68 0f ca 38
       0.10636236 0.20486642 5.988594e-05 9.63498e-05
0000c0 00 00 00 00 9f d3 99 38 c9 85 5f 38 6e a6 a1 38
       0.0 7.335026e-05 5.329194e-05 7.708078e-05
0000d0 eb 2e 3a 39 00 a6 b8 34 87 51 ae 3d 86 65 3e 3d
       0.0001775582 3.4393452e-07 0.08511644 0.04648354
0000e0 e2 a3 ce 39 5c 3e 22 38 00 00 00 00 23 b8 c4 38
       0.00039413484 3.8681887e-05 0.0 9.3803064e-05
0000f0 61 37 43 3d 7e d7 a7 3d 23 5a 7f 38 2c 1f 90 38
       0.047660235 0.08195399 6.0880684e-05 6.872261e-05
000100 6b b0 8f 3e c7 d6 5d 3d 00 00 00 00 7e 96 90 38
       0.28064284 0.054159906 0.0 6.8944864e-05
000110 00 00 00 00 79 4d d0 38 54 5a 57 3e 00 00 00 00
       0.0 9.932643e-05 0.21030551 0.0
000120 3b bc 55 3d 54 05 8d 36 76 07 99 3b 51 66 16 3d
       0.052181464 4.2027477e-06 0.004670079 0.03671867
000130 b9 a8 83 32 b5 24 2c 39 e1 33 b2 39 00 00 00 00
       1.5327133e-08 0.00016416873 0.00033989458 0.0
000140 3d 54 0a 39 59 96 44 3e 00 00 00 00 b2 3d 2b 3e
       0.00013192087 0.19197978 0.0 0.16722754
000150 5c 11 84 38 62 5f ae 3d 96 d0 8b 3d 00 00 00 00
       6.297484e-05 0.085142866 0.06826894 0.0
000160 6c 26 87 3c 34 bf a1 38 d9 e5 b0 38 ab 4e 84 3d
       0.016497813 7.7126926e-05 8.4351464e-05 0.06460317
000170 87 a7 4e 38 fb 19 15 37 17 ec 74 3c ab 3c 09 3e
       4.927025e-05 8.887141e-06 0.014948866 0.13402049
000180 e3 02 16 3a 2a 37 d9 3d 00 00 00 00 ed 1a 80 39
       0.0005722476 0.10606225 0.0 0.00024434124
000190 37 00 1c 38 ac 2f 91 37 00 00 00 00 52 64 10 37
       3.71935e-05 1.7307546e-05 0.0 8.6064265e-06
0001a0 20 be da 38 a2 fa 96 38 88 62 78 3d 92 c9 37 39
       0.000104304636 7.1992414e-05 0.06064084 0.00017527331
0001b0 77 9c 6e 3d 77 98 6d 3d a5 06 78 3d 9d e6 28 39
       0.058254685 0.05800673 0.06055321 0.00016107639
0001c0 99 e0 51 3e 29 08 56 3b 55 4d 34 39 ee 8e 2f 3e
       0.20495833 0.0032658672 0.00017194946 0.17144367
0001d0 b7 d6 2e 38 f2 13 b0 38 e3 eb 23 38 e8 e5 28 3e
       4.16848e-05 8.396049e-05 3.9081915e-05 0.16493952
0001e0 b9 e4 87 39 e6 29 05 39 70 00 44 3d b3 87 31 3d
       0.00025919618 0.00012699477 0.04785198 0.043342303
0001f0 3c ee d6 38 34 42 02 39 18 bc 19 3e 93 70 b1 3c
       0.0001024869 0.00012422429 0.15013158 0.021660125
000200 c2 58 f7 37 2a ca 8c 39 49 94 03 3e 57 5e 95 3d
       2.9486026e-05 0.00026853505 0.12849535 0.072933845
000210 57 42 42 36 0a e2 00 38 d3 d2 fa 38 33 5a 8b 3d
       2.8946868e-06 3.0728093e-05 0.00011960198 0.068043135
000220 61 95 45 3c 09 92 da 39 a9 ad 1f 3a d1 3c bd 38
       0.0120595405 0.00041689005 0.0006091246 9.02355e-05
000230 ac fd fd 3d cd 97 97 3b db 3a 4c 38 00 00 00 00
       0.124019 0.0046262504 4.8692204e-05 0.0
000240 34 d7 55 3d 2a d3 cd 38 e1 92 8f 3d 57 22 04 3c
       0.052207187 9.814494e-05 0.07010437 0.008064828
000250 f7 fe 84 3a 41 d9 3a 37 0e 17 cf 3d 5e ba 11 39
       0.0010146786 1.1137047e-05 0.10111819 0.00013897705
000260 e8 72 ea 3d 40 bc ed 3d e9 26 d8 38 dd 8b 87 39
       0.11447698 0.116081715 0.0001030693 0.00025853413
000270 20 95 97 38 00 00 00 00 e5 ca 3a 38 8c 6d af 3c
       7.228018e-05 0.0 4.4534816e-05 0.02141454
000280 68 bd e1 3c 0d 21 af 38 0a 93 8d 39 a7 ed 8c 3e
       0.027556136 8.3508065e-05 0.00027003168 0.27525064
000290 dd 0a fa 37 38 f4 11 3e 79 e2 45 39 95 2a 2f 39
       2.9807381e-05 0.14253318 0.00018871752 0.00016705164
0002a0 0a 50 4e 3a 00 00 00 00 34 00 b0 37 cd 16 fe 3d
       0.0007870203 0.0 2.098093e-05 0.12406693
0002b0 ff 81 c0 38 e5 b6 21 3d c6 b8 6c 3c b6 65 4e 3c
       9.179487e-05 0.039481062 0.01444835 0.012597492
0002c0 00 00 00 00 7d e4 e2 38 1a 9c 8a 3e 06 f0 cb 38
       0.0 0.00010819079 0.2707222 9.724502e-05
0002d0 9c bb c0 3d 9d f0 1f 38 fb 1e 32 39 f6 b0 2d 39
       0.09410784 3.8132643e-05 0.00016986944 0.00016564489
0002e0 00 00 00 00 33 9e ac 39 f1 12 ca 38 5b 74 c3 3d
       0.0 0.00032924264 9.635639e-05 0.095436774
0002f0 62 3c db 3c 02 07 89 39 17 df 91 3e d1 01 d9 3c
       0.026762191 0.00026135897 0.28490517 0.026490124
000300 fb ce c1 3d 66 9f 80 39 e1 b3 34 3e 00 00 00 00
       0.094633065 0.00024532824 0.17646743 0.0
000310 14 c9 7e 39 6f f1 ed 38 f5 be 3d 3e 8f ee 85 3d
       0.00024298235 0.00011346011 0.18529876 0.06539642
000320 fa b3 4d 3e c7 a0 6d 38 1d c3 6f 3b 89 87 0d 3e
       0.20088187 5.665494e-05 0.0036584802 0.13821234
000330 dc 7f 07 39 00 00 00 00 43 37 c8 3c c9 bc b4 38
       0.00012922235 0.0 0.024440413 8.618233e-05
000340 f1 52 0d 3e 57 09 0a 39 75 63 ab 38 93 1e df 38
       0.13801171 0.00013164185 8.172441e-05 0.000106391635
000350 ae cb 5c 38 36 c9 b6 3c 8a 87 24 38 c7 ac 3c 3d
       5.264178e-05 0.022312742 3.9226878e-05 0.04606321
000360 00 00 00 00 34 5e 6d 37 4a 7c 93 38 5f e5 61 3d
       0.0 1.4148234e-05 7.032657e-05 0.055150386
000370 c2 d6 70 37 26 5f e6 3d d9 e2 ca 3d 00 00 00 00
       1.4355117e-05 0.11248617 0.09906549 0.0
000380 be 11 6c 3d a0 d2 a5 37 5b 68 d7 38 04 c8 3e 38
       0.057634108 1.9767613e-05 0.000102714366 4.548581e-05
000390 0f 64 1d 39 9a ee 6c 3d e7 c2 c2 38 76 fa 55 3d
       0.00015009961 0.057844736 9.286944e-05 0.05224081
0003a0 00 00 00 00 8c 17 be 38 77 7e 95 3d 00 00 00 00
       0.0 9.064292e-05 0.07299512 0.0
0003b0 00 00 00 00 f6 08 2e 3e 6c 60 43 39 00 00 00 00
       0.0 0.16995606 0.00018632569 0.0
0003c0 6e 43 82 3d 66 cd a5 38 00 05 5b 3e 6d 49 ed 3d
       0.063605174 7.9060716e-05 0.21388626 0.115862705
0003d0 00 00 00 00 88 38 25 3e a7 e5 ec 3d 0d 2b 1e 38
       0.0 0.16134846 0.1156724 3.771023e-05
0003e0 08 ff 10 39 ef cd 5d 38 5f b2 06 3e d8 98 bb 3c
       0.00013827917 5.2882297e-05 0.1315398 0.02290003
0003f0 ab 6d 02 3a 2f e8 ed 37 00 00 00 00 31 ec 2e 39
       0.0004975448 2.836072e-05 0.0 0.00016681921

lin6.model.1.weight f4 [1, 512, 1, 1]
000000 01 63 06 3e 2c 71 22 3a e2 ff b1 3d 77 b9 0a 39
       0.13123704 0.00061966735 0.08691384 0.00013229797
000010 7b 10 2d 39 24 21 54 39 5f 1c f9 3c b8 09 54 38
       0.00016504705 0.00020230241 0.030409036 5.055379e-05
000020 8a 7b 84 39 50 de 36 38 ba 9f 39 3c 3c 8d 31 39
       0.00025269046 4.3599226e-05 0.011329586 0.0001693265
000030 3a ff 94 3c b5 ce 7d 3d 23 f5 d6 37 9b 4f d1 3d
       0.018188108 0.06196471 2.5624939e-05 0.10220262
000040 e3 88 32 3d 87 15 ae 3c 92 bf d2 3d 73 22 dc 39
       0.043587577 0.0212505 0.102904454 0.00041987337
000050 9f 8f fe 3c d0 70 66 3e bc 56 16 3e 44 b1 a5 39
       0.031074343 0.22503972 0.14681524 0.00031603326
000060 21 08 a2 38 af 35 6c 38 00 00 00 00 21 89 27 35
       7.726276e-05 5.631678e-05 0.0 6.2411897e-07
000070 38 2f 3d 3d aa e4 1f 3a e4 72 c7 3c 9c b5 28 38
       0.04618761 0.0006099442 0.024346776 4.022346e-05
000080 f9 b5 4a 3a 91 d6 58 3c 7b be 14 3d f8 77 ee 39
       0.00077328045 0.01323475 0.03631447 0.0004548428
000090 86 87 34 3c 7b e3 92 3d 10 9b 00 39 cc 41 e1 3c
       0.011018639 0.07172295 0.00012264797 0.027497195
0000a0 7b c9 1c 3d c1 11 39 39 9b b1 0e 3d 92 76 34 39
       0.038278084 0.00017649589 0.034837347 0.00017210309
0000b0 a8 ed 15 3d c3 d8 42 3c 60 eb a3 3d 5a 8e bd 37
       0.0366036 0.0118925 0.080038786 2.2596843e-05
0000c0 cd cf 8c 3d 17 20 ae 3d 69 9b 9a 3c 76 14 58 3a
       0.06875572 0.085022144 0.018872933 0.0008242795
0000d0 e3 c1 81 3d aa c6 4f 39 82 14 93 3b e7 b4 be 3c
       0.06335809 0.00019815066 0.0044885287 0.02327962
0000e0 8a d5 37 38 04 74 a1 39 b7 2c aa 39 e2 17 50 39
       4.3829474e-05 0.0003079475 0.00032458242 0.00019845323
0000f0 33 e7 96 39 8d 03 09 3d 00 00 00 00 e1 57 1e 3c
       0.00028782486 0.033450652 0.0 0.009664507
000100 83 5d e2 3d a2 5b d8 3d 26 a6 52 3d ad b0 81 39
       0.11052992 0.105643526 0.051427983 0.0002473643
000110 cc 7e 82 3d c0 5a b3 38 13 fd 68 3c 08 d8 b5 38
       0.06371841 8.552289e-05 0.014220494 8.6709915e-05
000120 28 36 4f 3d d9 2d 97 3c da 43 86 3d 09 ad 23 37
       0.050588757 0.018454479 0.065559104 9.755845e-06
000130 00 00 00 00 6b bc fd 37 22 f3 9f 3d 18 69 af 3d
       0.0 3.024769e-05 0.07810046 0.08564967
000140 f1 44 03 39 ea 3d a8 3b 00 00 00 00 03 97 2e 3c
       0.00012518816 0.005134334 0.0 0.010656121
000150 00 00 00 00 b4 82 9f 3c 30 67 cf 3c 00 00 00 00
       0.0 0.019471504 0.025317758 0.0
000160 f5 d8 a3 38 d3 9e 50 39 12 0a a8 3c 79 1d b9 3d
       7.812857e-05 0.00019895592 0.020512614 0.090388246
000170 c9 1b c8 3c 7d dc e8 3d a7 e1 be 38 8e 18 71 3d
       0.024427311 0.1137018 9.101937e-05 0.058861308
000180 d0 08 7f 3d b6 bc 4f 3d f6 41 05 3a 4a 9c 93 3a
       0.062264264 0.05071708 0.00050833763 0.0011261788
000190 7c b6 ed 3c b9 16 e7 3c c4 48 4c 3c 0e 7a e9 3d
       0.02901768 0.028209077 0.012468521 0.11400233
0001a0 b0 0e 76 3d 2a 28 97 3b c5 83 62 3d 1a e4 80 3d
       0.0600726 0.004612942 0.055301446 0.06293507
0001b0 f4 82 09 3d 4c 38 c2 3d 68 aa 2e 3e e8 42 7f 3d
       0.033572152 0.09483394 0.17057192 0.062319666
0001c0 4f 45 0c 39 21 4f e5 38 24 41 89 3d c2 0d c0 38
       0.0001337726 0.0001093431 0.06701878 9.157836e-05
0001d0 e9 e5 24 3d 22 2b 67 3c da 96 8c 39 bc 8c 1d 3d
       0.040258322 0.014109405 0.00026815274 0.038464293
0001e0 23 41 ac 38 cf a3 87 3c 5b ce 58 39 c7 5f 0a 3a
       8.213732e-05 0.016557602 0.00020676239 0.0005278554
0001f0 00 00 00 00 ec 62 d3 38 0f 8b aa 3d d8 8d 29 3d
       0.0 0.0001007969 0.083273046 0.04139504
000200 a5 b4 1a 35 c4 01 68 3d 42 5b 0d 39 9d 61 5c 3c
       5.7632343e-07 0.05664231 0.00013480804 0.013451007
000210 e6 37 64 3e 7e 4d 0a 3d 00 00 00 00 05 6e ed 39
       0.22286949 0.03376531 0.0 0.00045286134
000220 fc ff 9b 39 35 e3 a2 39 86 09 dc 38 ba 86 c4 3c
       0.00029754627 0.0003106833 0.00010492191 0.023990024
000230 5e 51 84 38 7a b5 8f 3c 4b 7e 44 39 00 00 00 00
       6.309406e-05 0.01754259 0.00018739064 0.0
000240 82 c9 35 39 53 da 81 3a 00 00 00 00 4f 49 f1 3c
       0.00017336573 0.0009906985 0.0 0.029453902
000250 8f 47 8b 39 90 25 22 3a b1 fe a3 39 67 ef e3 3b
       0.0002656546 0.0006185407 0.00031279543 0.006956029
000260 a9 e2 3e 3d e7 51 f2 3d 2f 93 0d 3a ea f0 c3 39
       0.04660288 0.11832028 0.0005400655 0.00037372793
000270 e5 22 1c 3d f6 fe bf 3b a4 e0 90 37 75 2b 9e 39
       0.038119216 0.005859251 1.7270744e-05 0.00030168486
000280 7a 65 be 3c b5 34 63 3d 4c 03 0f 37 59 bd bf 3c
       0.023241747 0.055470187 8.524232e-06 0.023405718
000290 a8 7f 26 3d 3b 8f 8e 39 54 6d f1 3c 18 61 c7 3c
       0.040649086 0.00027191066 0.029471077 0.02433829
0002a0 24 1d 96 39 15 4d 0a 3d 35 c9 1c 38 54 cc 08 3d
       0.0002863194 0.033764917 3.7380687e-05 0.033397987
0002b0 74 d2 e8 38 5d 02 39 3c 64 b7 4e 3d 53 42 bb 37
       0.00011101822 0.011292067 0.050467864 2.2323022e-05
0002c0 42 26 43 3c 77 5b 14 3d d7 6f b6 3a f3 5d 82 37
       0.011910977 0.03622004 0.0013918829 1.5540956e-05
0002d0 33 5e eb 3c bd 31 ce 3d 44 c7 4d 3a f1 95 e0 38
       0.028731441 0.100680806 0.0007849822 0.00010709081
0002e0 ef c6 b5 39 40 47 e8 38 53 dc 0b 39 e8 2e 58 3d
       0.00034671227 0.000110758934 0.0001333815 0.05277911
0002f0 3d 13 94 38 1f 5e a8 3d a0 66 cd 3c fe 80 48 39
       7.060773e-05 0.08221077 0.02507335 0.0001912154
000300 86 e8 a4 37 36 bc 40 39 74 48 e9 3c 07 07 d6 3c
       1.96586e-05 0.00018380661 0.028476931 0.026126398
000310 12 2d cf 3c a8 b6 f8 3c fe 86 76 39 a7 84 87 3a
       0.025290046 0.030360535 0.00023510677 0.0010339216
000320 0c 1c c1 38 42 e2 7d 3d ac e4 17 3a 8d ea de 39
       9.208181e-05 0.061983354 0.00057942676 0.00042517894
000330 86 db 71 38 68 69 10 3d c0 16 c0 3d 5b 99 c1 38
       5.7663325e-05 0.035256773 0.09379339 9.231522e-05
000340 4d d9 b1 38 87 be e4 39 0a b7 5c 3d e7 d0 75 3d
       8.480493e-05 0.00043629503 0.053885497 0.060013678
000350 d0 ce 39 3a 06 ec d0 3b 9b e6 ea 36 0f c1 83 3c
       0.00070880074 0.0063757924 7.0005894e-06 0.016083268
000360 a1 bf 6c 39 47 f7 0b 3c e0 e1 b0 3d 3a 19 38 38
       0.00022578101 0.008542842 0.08636832 4.3892513e-05
000370 7e 91 12 37 33 3c 04 3e e8 df 2a 3d b1 de e5 38
       8.736153e-06 0.12913589 0.04171744 0.000109610504
000380 19 fc 76 3a b1 be 80 38 98 be 5b 3a 32 6b a6 38
       0.0009421721 6.139035e-05 0.00083825877 7.9354635e-05
000390 04 5d 73 3d 64 6f 4a 3d 0d e0 be 3d c6 68 39 3d
       0.05941488 0.049422637 0.09320078 0.045265935
0003a0 a6 18 0d 3c e0 4d 88 3c 38 aa a0 38 96 39 56 3d
       0.008611834 0.016638696 7.6611e-05 0.052301012
0003b0 8a 02 09 3d af 88 01 3e 84 99 ec 3b 7f cd b7 3c
       0.033449687 0.12649797 0.007220449 0.022436855
0003c0 3a 8a 4b 3d 82 d7 83 3c 9f 33 04 3b 2d a6 10 38
       0.04969237 0.016093973 0.002017237 3.448704e-05
0003d0 60 01 40 36 f2 b7 dd 3d a0 bc f6 3c 3b 25 f1 3c
       2.861103e-06 0.108261004 0.03011924 0.029436698
0003e0 f2 cd c4 3d aa 69 53 39 54 ae ab 3c a4 c1 c4 3c
       0.096095935 0.00020161891 0.02095715 0.024018116
0003f0 2c a0 16 37 b4 d7 3f 3d 00 00 00 00 9c 44 05 39
       8.97799e-06 0.04683657 0.0 0.00012709427
